data/gru/ptb/adamax/fitstats/model/model.pkl_14.npy (npy, 404 bytes, 1 tensors)

array f4 [81]
00000000: 7b28 5dbf 8c51 9bbd 5641 d8be 4727 09bf
00000010: 7330 a53d 04b6 1bbe 88df 18bf f5ae aabe
00000020: 91d0 1abf 2c4f 043f e41d 22bf fd9e b4be
00000030: 640e 74be 0213 22be 4a47 ebbe 9747 95be
00000040: 4476 993d a3c6 983e 8aa0 c5be 9bd1 9a3e
00000050: 08d3 a93e d835 e4be e116 5abe 5fb1 df3d
00000060: 838f e0bd 6c8c 6ebe bcab 35bf 24e2 3abf
00000070: 02ae bfbe 990f 11bf 8cd0 a3bf 5379 dabe
00000080: 4784 10bf a4e5 a6be 1afe 7abe 89de b7be
00000090: 560f 75be 1355 aebe fa37 06bf cd27 ffbe
000000a0: fb73 a0be 3bd5 0cbf b705 09bd 111f d7be
000000b0: 5b8f 99be ae90 a3be 8d74 d0bd 51cf e73c
000000c0: ec1b 14bf e885 3fbd 2d04 81be a1eb 94be
000000d0: 5ff1 70be 7f32 a5be 2bf7 95be 43cb e13e
000000e0: 59d0 ea3e b2a4 2ebf d1c7 22bf 647c 743e
000000f0: c034 08be fd99 40bf d355 193f fb90 50bf
00000100: 424c 75bd 024a a3be 21ea 13be facb 463d
00000110: 4531 72be d747 0cbf 1ac8 d93d 91b4 7bbe
00000120: a6e8 bcbe eab4 37bf 72d2 38bf 5f4f e0be
00000130: b69f 9d3e 0a71 a2be db03 b43e a176 95be
00000140: b301 a4be
-0.86389893 -0.07583913 -0.42237347 -0.5357556 0.080658816 -0.15206152 -0.5971608 -0.33336607
-0.604745 0.51683307 -0.6332686 -0.35277548 -0.23833615 -0.15827563 -0.45952827 -0.2915618
0.074932605 0.29839048 -0.38599044 0.3023804 0.33168817 -0.4457233 -0.2129779 0.10922503
-0.10964873 -0.23295754 -0.7096517 -0.73001313 -0.37437445 -0.56664425 -1.2798018 -0.42670688
-0.5645184 -0.32597077 -0.24510995 -0.35911968 -0.23931631 -0.3404928 -0.52429163 -0.49835053
-0.31338486 -0.55012864 -0.033452716 -0.4201589 -0.29992184 -0.3194632 -0.1017848 0.028297098
-0.57855105 -0.046758562 -0.25198498 -0.2908602 -0.23529576 -0.32265088 -0.29290137 0.4410039
0.45862082 -0.68220055 -0.63586146 0.23875576 -0.13301373 -0.7523497 0.5989658 -0.8147122
-0.05988718 -0.318924 -0.14444782 0.04853437 -0.23651607 -0.5479712 0.106338695 -0.245806
-0.36896247 -0.7176043 -0.72196114 -0.43810555 0.30785912 -0.31726867 0.3515919 -0.2919207
-0.32032546
