data/gru/ptb/adamax/fitstats/model/model.pkl_03.npy (npy, 345168 bytes, 1 tensors)

array f4 [337, 256]
00000000: bfc6 f8bd 3814 583f 19e4 a7be e6b7 163f
00000010: 78a1 b5be 586c 0ebd e89e 3cbe f119 e1be
00000020: 30eb ee3e 00e2 903e a783 8a3f afa0 933e
00000030: 7031 433f d2d3 323f 1859 303f 9fc4 b73e
00000040: e577 193c 188d 5cbe 32cf 3dbe 0c4f 483d
00000050: 07d9 933e 49ac 1fbe f53b 75be 50a8 06bf
00000060: fb85 d6be 892c d43e b3f1 adbe 59ce 043f
00000070: d53c 2b3f 4add 323d 0c33 aa3d 0a0e fa3c
00000080: 5c75 31bf c205 813e 0092 98be 155b a9bd
00000090: 75ef 1d3f 5963 14bf 52d2 da3e b120 d0be
000000a0: d5c7 13bf a31a bb3d 8a65 fe3d 1ad8 08bf
000000b0: 90cc f0bb ee3f 3c3f 487a eebe 051f 943d
000000c0: 50ad 2b3f 515b 21bf 6482 c03e 5ae4 4dbe
000000d0: b0d1 d83e bd7d adbd fe6b 18bf 1c49 7bbe
000000e0: c195 ff3e 6934 183f 2725 333f 4dd8 a7bd
000000f0: 3c65 883d 849c f93e f7f4 a63d b6d4 8ebe
00000100: 8ebf 2a3e 0a5e 9fbd 6af7 aa3e b325 763f
00000110: 77c1 2c3f 3780 e4be 41e5 b8be 3bb5 eabe
00000120: 2916 943f 5e0d df3e 13e9 12be 5872 debe
00000130: e0cc 5a3d 3b35 243d da72 d1bd 8ecc 7c3d
00000140: c834 21be 5f76 df3e 39f3 4c3e 92f5 503e
00000150: 6a0d 743d 8f28 bc3e da72 0ebf bae3 a1be
00000160: 1128 d9ba 240c 693d 21a6 d0bd 05cc 963d
00000170: f809 84bc fffa aebe dba8 ba3e f503 1e3e
00000180: 34b8 253d b6d6 35bf 7460 683f a18b 693e
00000190: c2e2 083e fb94 de3e ab88 663d 7d23 7abf
000001a0: f80f de3d fe82 50be 666b 49be d2b9 37be
000001b0: 778a 3abd 099a 2c3e 846a ddbe d691 d93e
000001c0: 1c1b f03e e561 303e 5527 353f 11a8 323f
000001d0: 9788 d83e 2eb7 023f d1de 58bf 99c9 503f
000001e0: 0ced bebe b407 583d 5de2 f6be 2c47 8dbf
000001f0: 54f8 00be 147d bb3e 541a 12bf 2d71 efbd
00000200: d74c d0be 9ebf edbd 4a06 643e 972f 1e3f
00000210: d381 e8be 4d00 363d 907b 0cbf 4670 2ebf
00000220: 36a0 3bbf 9d45 e5be 12bf 483d 2f57 03bf
00000230: ffa8 df3e e5b0 9e3f dcd4 82bf a77d a33d
00000240: 8436 35bf a81d c1be 2d1c babe db81 09bf
00000250: 066a 9abe f6fd 89be 26bd 373f 33e7 d6bd
00000260: 7fe7 553c f49f 9cbf dbd8 26be 081d a0bb
00000270: fab1 903e ba33 d1bf 1994 533e ec80 223e
00000280: b3e3 243f 1d12 f43e 9291 1e3e 0046 223d
00000290: 8031 363f 1929 793e 071a a13e d144 65bf
000002a0: 642e 60bf 9dd2 d2be e646 833d 995f 01be
000002b0: da47 0f3f baad 05bf bb9a febe 25f3 c53e
000002c0: 1354 33be 00b8 013f cf5a a53d b30b 463e
000002d0: c22b 16be ee61 403e 89a2 63bf ed55 873b
000002e0: 67ff 093e ebf9 f8be fedd 0b3e c9a8 9b3d
000002f0: 8f73 c7bd 0f05 43be c0c1 913e 1a3b 313e
00000300: 3a5c e2be 2760 0bbf b7f3 d73d 99aa bdbe
00000310: c91e f5bd 4c19 ebbe 354f 85be 8a01 473e
00000320: 4542 6e3d a363 8e3b 52cb b63e 86b5 56be
00000330: 96ce 313d 5533 50bf 51fd efbe 4a38 f03e
00000340: 6fca 803e db4b f43c 206a 0d3e 8dc3 97bd
00000350: 249b 49be 58ed 9f3e c91c a23e 65c8 e93e
00000360: 25ad 1abf 31f7 9e3d 956f 5c3e 73b3 1a3d
00000370: cc70 09bf 727f ecbe 8713 d33e 93b9 bd3e
00000380: a149 49be ef43 b3bd 989e 0e3d c665 473f
00000390: 88da 283f 7369 78bf d1e5 1abe f869 e23e
000003a0: e8ed f5be 7c4f 133e d9fb 55bd 5a2d c6be
000003b0: 4770 593e 551c 023f 42d5 973f fe0d 6a3e
000003c0: e3a1 d83e bafd 13be 4e57 2e3e a0c6 003f
000003d0: 8c23 023f 4130 ed3e 40a2 19be 31b7 593c
000003e0: be66 8abd 2aeb b8bc fc34 94be d074 02bf
000003f0: 4785 ca3e 92b7 32bf ad6f 87bd 0f2c 983e
-0.12147283 0.8440585 -0.32791212 0.58874357 -0.35474753 -0.034771293 -0.18419993 -0.43965104
0.4666381 0.28297424 1.0821427 0.2883353 0.7624731 0.6985446 0.68885946 0.35892197
0.009366964 -0.21538198 -0.1853607 0.04890351 0.28876516 -0.15593065 -0.23948653 -0.52600574
-0.41899094 0.41440228 -0.33973464 0.5187736 0.668897 0.04366807 0.08310518 0.030524272
-0.693197 0.25199705 -0.2979889 -0.08269326 0.6169351 -0.5796409 0.42738587 -0.40649942
-0.57726794 0.0913594 0.12421711 -0.53454745 -0.0073486045 0.7353505 -0.46577668 0.07232479
0.6706133 -0.6302996 0.3759948 -0.2010664 0.4234748 -0.08471248 -0.59539783 -0.24539608
0.4991894 0.5945497 0.69978565 -0.08195553 0.06659934 0.48752224 0.08152192 -0.2789666
0.16674635 -0.077816084 0.33391887 0.96151274 0.67482704 -0.4462907 -0.36112407 -0.45841393
1.1569263 0.43564886 -0.14346723 -0.43446612 0.05341804 0.040089827 -0.10226984 0.061718516
-0.1574279 0.43644997 0.20014657 0.20406178 0.059583105 0.36749694 -0.55644 -0.31619054
-0.0016567727 0.056896344 -0.101879366 0.073631324 -0.016118035 -0.3417587 0.36456951 0.15431197
0.040458873 -0.7103075 0.90772176 0.2280717 0.13367751 0.43473038 0.05628268 -0.977104
0.108428895 -0.2036247 -0.19669876 -0.17941979 -0.045542207 0.16855635 -0.43245327 0.42494076
0.46895683 0.17224844 0.7076314 0.697877 0.4229171 0.5106076 -0.8471499 0.81557614
-0.37290227 0.05274172 -0.48219576 -1.1037345 -0.1259473 0.36618865 -0.57071424 -0.116915084
-0.40683624 -0.11608814 0.22268024 0.61791366 -0.45411548 0.04443388 -0.5487604 -0.68140066
-0.7329134 -0.44779673 0.049010344 -0.51304907 0.4368362 1.2397734 -1.022121 0.07982951
-0.7078631 -0.37717938 -0.3634962 -0.5371377 -0.30159014 -0.2695157 0.7177299 -0.104933165
0.013055681 -1.2236314 -0.16293661 -0.0048862733 0.28260785 -1.6343911 0.20661964 0.15869492
0.6440994 0.4767007 0.15485218 0.03961754 0.7116928 0.24332084 0.3146517 -0.8955813
-0.87570786 -0.4117631 0.06410007 -0.12634124 0.5596901 -0.5221821 -0.49727425 0.38662067
-0.1751254 0.50671387 0.08073961 0.193404 -0.1466513 0.18787357 -0.88919884 0.004130116
0.13476335 -0.48628172 0.13658902 0.076005526 -0.09738838 -0.19044898 0.28468132 0.17307702
-0.44210988 -0.5444359 0.10544532 -0.37044218 -0.119687624 -0.45917737 -0.26036993 0.19434181
0.05816867 0.0043453737 0.35701996 -0.20967683 0.043409906 -0.81328326 -0.46872953 0.46917945
0.25154445 0.029821327 0.13810015 -0.07410345 -0.19688088 0.31235766 0.31662586 0.456607
-0.6042045 0.07761992 0.2152694 0.037768792 -0.5368774 -0.46190983 0.41225836 0.37055644
-0.19656993 -0.08753192 0.034819216 0.7788967 0.6595845 -0.970359 -0.1512673 0.44221473
-0.4803307 0.1438579 -0.052242134 -0.38706475 0.21234237 0.5082448 1.1861956 0.228569
0.4231101 -0.14452258 0.17025492 0.5030308 0.5083549 0.46325877 -0.150033 0.013288305
-0.06757878 -0.022573072 -0.28946674 -0.5095949 0.39554808 -0.69811356 -0.06613097 0.29721114
