data/gru/ptb/adamax/fitstats/model/model.pkl_12.npy (npy, 1104 bytes, 1 tensors)

array f4 [256]
0	0xbd8723c9	-0.06598622
1	0xbd2970d2	-0.04136736
2	0xbcca7d29	-0.024717884
3	0xbdd504eb	-0.10401329
4	0x3c3e2379	0.011605137
5	0x3d116790	0.035499156
6	0xbd3e7f6e	-0.046508245
7	0x3d69a8b9	0.057045672
8	0xbd8f32f5	-0.06992141
9	0x3d3e0e6f	0.046400484
10	0xbd71846b	-0.058964174
11	0xbd0e54d3	-0.034748863
12	0xbdd9fc4a	-0.106438234
13	0xbd8c6542	-0.06855251
14	0xbdeebea4	-0.116574556
15	0xbb68fb9d	-0.0035550364
16	0x3cea2694	0.028582849
17	0xbd1caef5	-0.03825279
18	0xbc51db90	-0.012808695
19	0xbd822b09	-0.063558646
20	0xbd3da32b	-0.046298187
21	0xbd1f95c1	-0.038961176
22	0x3d59a9e6	0.053140543
23	0xbc3cf410	-0.011532798
24	0xbd3b7d10	-0.045773566
25	0x3d35e2bd	0.044405688
26	0x3c700279	0.014649027
27	0x3c8a4bda	0.016881872
28	0xbd2cea32	-0.042215534
29	0xbca9640a	-0.020677585
30	0x3d820241	0.06348086
31	0xbd8b5e48	-0.06805092
32	0x3c429339	0.011875921
33	0xbddf655d	-0.109080054
34	0x3d7ad8d1	0.06124193
35	0x3ae08bc0	0.0017131492
36	0xbd3bd57d	-0.045857895
37	0x3dcaa816	0.09895341
38	0xbb565302	-0.0032703285
39	0x3d4ab56a	0.049489416
40	0x3d64d93f	0.055871245
41	0x3c5dc3ab	0.01353542
42	0xbc85a698	-0.01631479
43	0xbce76be8	-0.028249696
44	0x3d4b4270	0.049623907
45	0xbdadc073	-0.084839724
46	0x3d3f3d7e	0.046689503
47	0xbd860333	-0.06543579
48	0x3c5a2917	0.013315461
49	0x3ce8c7f2	0.028415654
50	0x3d855108	0.06509596
51	0x3cf5881a	0.029972125
52	0x3d94fec4	0.07275155
53	0x3cfe7c15	0.031065026
54	0x3d390c09	0.045177493
55	0xbd2210a9	-0.03956667
56	0x3ddfb2b4	0.10922757
57	0x3a8739ec	0.0010316945
58	0xbd4d98b7	-0.05019447
59	0x3c219003	0.009860995
60	0x3d512774	0.051063016
61	0x3da62ab1	0.081136115
62	0x3d153aba	0.03643296
63	0x3cd511e9	0.026009517
64	0x3d4b33a3	0.04960979
65	0x3d17ae8a	0.037031688
66	0x3d26e8a1	0.040749196
67	0xbcf4b461	-0.029871168
68	0x3da6c0c5	0.081422366
69	0x3d46574c	0.048423097
70	0xbd633135	-0.05546685
71	0xbd848b9c	-0.06471941
72	0x3d99a75e	0.07502626
73	0x3d202d13	0.039105486
74	0x3c693d3b	0.01423579
75	0xbd07ed21	-0.033185128
76	0xbcbba228	-0.02290447
77	0x3d387963	0.04503764
78	0x3d3351b7	0.0437791
79	0xbd262a9e	-0.040567987
80	0xbda00866	-0.07814102
81	0xbd6916da	-0.05690656
82	0x3cf82aab	0.030293783
83	0x3a0dfe97	0.000541666
84	0xbcc9e926	-0.024647307
85	0x3d3b1b95	0.0456806
86	0x3de2b184	0.11069015
87	0xbd669c93	-0.056301665
88	0x3da24997	0.079241924
89	0xbddba71e	-0.107252344
90	0xbd433c00	-0.047664642
91	0xbd49d249	-0.04927281
92	0x3b877f7e	0.0041350713
93	0x3dc5e1a6	0.0966218
94	0xbbd48c7c	-0.0064864736
95	0xb9ed9c29	-0.0004532051
96	0x3c0e305a	0.00867852
97	0xbd17d40e	-0.037067465
98	0xbd21df94	-0.03951986
99	0x3d8f0e61	0.069851644
100	0xbd1d69c3	-0.03843094
101	0xbd0147cb	-0.031562608
102	0x3de01ab4	0.10942593
103	0xbd7670d3	-0.06016619
104	0xbb3594cc	-0.0027707098
105	0x39df404c	0.0004258178
106	0x3c2d383e	0.010572491
107	0xbc5ac5e8	-0.013352849
108	0x3c2c1bbe	0.010504661
109	0x3cbe913c	0.023262613
110	0xbd5067df	-0.05088031
111	0xbd1a775d	-0.03771149
112	0xbdb353e5	-0.08756236
113	0x3d591b05	0.053004283
114	0x3da7c8ff	0.08192634
115	0x3c15980d	0.00913049
116	0xb84c2c1f	-4.867848e-05
117	0xbd3af429	-0.045643006
118	0x3d6dfde5	0.05810346
119	0xbe119bf0	-0.14219642
120	0xbce3c89a	-0.027805615
121	0x3da49b04	0.080373794
122	0xbc4d5527	-0.012532509
123	0xbb8e32b2	-0.0043395394
124	0xbd81a9ea	-0.06331237
125	0x3e0274dd	0.12739892
126	0x3db36b2e	0.08760677
127	0xbd4073f9	-0.0469856
128	0x3deddd3a	0.11614461
129	0xbc111a41	-0.008856357
130	0x3db5657b	0.088572465
131	0xbcec11fa	-0.028817166
132	0xbdc9dfd8	-0.09857148
133	0x3cb86df0	0.02251336
134	0x3d0fca6c	0.035105154
135	0xbd99f339	-0.07517094
136	0xbd5eba2f	-0.054376777
137	0x3db7eee1	0.089811094
138	0xbd78b7f9	-0.060722325
139	0xbe12d59d	-0.143393
140	0x3d08e8fe	0.033425324
141	0x3d26140b	0.04054646
142	0xbd4b711e	-0.049668424
143	0xbdd07127	-0.10177832
144	0xbc06c8cb	-0.008226584
145	0x3d889c05	0.06670383
146	0x3d018506	0.031621
147	0xbd08e281	-0.033419136
148	0x3d22317b	0.03959797
149	0x3e0b8e36	0.13628468
150	0x3c7b912c	0.015354436
151	0x3c80d9c1	0.015728833
152	0x3d5f894c	0.054574296
153	0xbcfd38c4	-0.030910857
154	0xbcf90e1d	-0.030402238
155	0xbcdc84c2	-0.026918773
156	0xbdbbd138	-0.09170765
157	0x3c4fb69b	0.012677814
158	0xbb900bfc	-0.00439596
159	0x3d43feac	0.047850296
160	0xbd194420	-0.037418485
161	0x3d5a3ca2	0.05328048
162	0x3dcc77e5	0.099838056
163	0xbd250062	-0.04028357
164	0xbd65b1df	-0.056077834
165	0x3dca468c	0.09876737
166	0xbd47455b	-0.048650127
167	0x3d899ed2	0.06719746
168	0x3dc43cc4	0.095819026
169	0x3d7ac458	0.061222404
170	0x3d1985cc	0.037481114
171	0x3c888b9b	0.016668132
172	0x3d9fd419	0.07804126
173	0x3db00fcf	0.08596765
174	0x3e40d22e	0.18830177
175	0x3d8565b8	0.06513542
176	0xbdafb202	-0.08578874
177	0x3d4ce8c2	0.050026663
178	0x3d4792c8	0.048723966
179	0xbd344f2d	-0.04402082
180	0xbd3ebede	-0.046568744
181	0xbdf5ec80	-0.120079994
182	0x3cce592a	0.025189001
183	0x3dcd6646	0.10029273
184	0x3dbb0829	0.09132416
185	0xbd5e8705	-0.054327983
186	0xbd398988	-0.045297176
187	0x3d44e81b	0.048072916
188	0xbd3c77d1	-0.046012703
189	0x3be20119	0.0068971035
190	0x3a9e9578	0.0012098989
191	0xbd8b2871	-0.06794823
192	0x3d0cdc9e	0.034390084
193	0xbbfde7a7	-0.0077485624
194	0x3cad4620	0.021151602
195	0xbda0e89b	-0.07856866
196	0x3da86878	0.08223051
197	0x3bfcb517	0.0077120173
198	0x3dd44436	0.10364573
199	0x3c7f5d3a	0.015586192
200	0x3ccc0962	0.024906818
201	0x3c04803e	0.008087216
202	0x3d35f308	0.044421226
203	0x3c40c67c	0.011766072
204	0x3d140cbd	0.03614496
205	0xbd38ed9a	-0.04514847
206	0xbd66fcf2	-0.05639357
207	0xbc4aa78a	-0.012369046
208	0xbd3bee7f	-0.045881744
209	0x3dec413f	0.11535882
210	0x3d93bb46	0.07213454
211	0xbdf577d6	-0.119857475
212	0x3d961142	0.073275104
213	0xbd8ca5d1	-0.068675645
214	0x3da210e6	0.07913379
215	0x3d823e27	0.06359511
216	0xbd5b0c3e	-0.053478472
217	0x3d0bba22	0.034113057
218	0x3b2a2a49	0.0025965145
219	0x3dafc16d	0.08581815
220	0x3c2ce35c	0.010552254
221	0x3e6eed9e	0.23332831
222	0x3c15b513	0.00913741
223	0xbe01a64a	-0.1266109
224	0xbbc5ba85	-0.0060341978
225	0x3d9d9871	0.076950915
226	0x3c998802	0.018741611
227	0xbdc09ef8	-0.09405321
228	0x3d5192e1	0.051165465
229	0x3def9b3a	0.11699529
230	0xbdc52194	-0.09625545
231	0xbda126d3	-0.07868733
232	0xbe37153e	-0.17879197
233	0x3c958fcd	0.018257046
234	0x3d476033	0.048675727
235	0xbc6edaf3	-0.014578569
236	0xbddfcb82	-0.10927488
237	0xbd9e30d7	-0.07724159
238	0xbd88f0d5	-0.0668656
239	0xbd2e80ac	-0.04260318
240	0xbd9b5418	-0.07584399
241	0x3cd8cb43	0.02646411
242	0x3d829edc	0.06377956
243	0x3c20b197	0.009807966
244	0x3d00a87b	0.031410675
245	0x3d5da818	0.054115385
246	0x3d4ca30e	0.04996019
247	0x3da48613	0.08033385
248	0x3cc89bb8	0.024488315
249	0xbdc5bbf0	-0.09654987
250	0xbde26924	-0.1105521
251	0x3d6e168f	0.058126982
252	0x3baa8862	0.0052042464
253	0xbd0f2368	-0.034945875
254	0x3cc29b5c	0.023755722
255	0x3c7287c7	0.01480288
