data/gru/ptb/adamax/fitstats/model/model.pkl_01.npy (npy, 345168 bytes, 1 tensors)

array f4 [337, 256]
-0.082896404 -0.21083966 0.21146557 -0.049108904 -0.05697448 -0.088177904 -0.07717107 -0.2160232
0.031382572 -0.0480335 0.0075367535 -0.21031277 0.07899582 0.3465981 -0.06323261 -0.3192893
-0.090979345 -0.026300557 -0.053212717 0.02072424 0.19966203 -0.07848742 0.118565075 -0.17604025
-0.26611677 -0.22170551 0.14894485 -0.12233019 -0.3026032 -0.29425132 -0.2509948 -1.056322
-0.09973486 0.14525321 0.20567009 -0.21106791 0.013445746 -0.004065786 0.003362363 0.14550935
0.38259065 0.13363081 -0.26021606 -0.08235026 0.15232728 0.19046864 -0.32716405 0.20808983
0.124605134 0.30325878 0.26644167 -0.014523292 -0.080337845 -0.1934892 -0.019270997 -0.34579515
-0.093558826 0.015119811 0.058696017 -0.17627122 0.6213905 0.47357202 0.19847451 0.10114455
-0.32245034 -0.253523 -0.045858663 0.3547256 -0.2787469 0.15442362 -0.042273253 -0.23929766
-0.30747747 -0.04165412 -0.07829598 -0.18496539 0.20862669 -0.3880002 0.11750546 0.07175315
0.055876777 0.09827467 -0.12848435 0.28085417 -0.19285282 0.20789544 -0.612732 -0.10551217
0.15609539 -0.1565457 -0.183493 -0.29690915 -0.048201695 0.27233362 -0.5226952 -0.1717317
0.5705318 0.17223315 0.09042244 0.038604606 0.20879658 -0.08336786 -0.10934057 -0.4832641
-0.21460557 0.043695442 0.13761885 0.20699498 0.41525117 -0.028916528 -0.12816072 -0.054484934
-0.1363182 0.12967885 -0.31935805 -0.0034893623 0.4490854 -0.18910673 0.0007207951 -0.27224228
-0.4702744 -0.01506675 -0.3122068 -0.002070613 0.27640715 0.08030961 -0.4422565 -0.0049279747
-0.2566609 -0.24464226 -0.35568237 0.13928221 -0.0026200514 -0.058751546 0.09669316 0.9070749
0.13434045 -0.20963515 0.0393845 0.47842863 0.0596744 -0.11517466 0.1548893 0.31063902
0.0026595425 0.36331216 0.39110243 -0.14128062 0.04477999 0.0025158923 -0.042031795 -0.79734457
-0.144312 -0.11811453 -0.013025347 0.4731262 -0.24453956 0.058710426 -0.19703895 -0.30890816
-0.336765 -0.0002416865 0.17754562 0.14966407 -0.09923642 -0.042860568 -0.2998563 -0.096583776
-0.21176445 -0.6835203 -0.47011214 0.086564586 0.21458843 -0.59523934 0.1786598 0.10861997
0.081374325 -0.2835692 -0.26156086 -0.040513087 -0.18536739 0.16567457 0.10812274 -0.009524428
0.6000477 -0.32455972 0.29667094 0.66122234 -0.07148065 0.03753808 0.062383045 0.11986562
-0.087920435 -0.11999612 -0.05996576 -0.0013979959 0.66284966 -0.15256216 0.43183878 0.23050672
0.03488489 0.01602752 -0.46299294 0.056982618 -0.002663554 0.20114687 0.15694769 0.20579766
-0.48562184 -0.17723072 -0.10878554 -0.4091164 0.017341869 -0.5770395 0.08106195 0.25734627
0.04583308 -0.12512168 -0.103701405 0.4387044 0.043425974 0.0821292 0.0546871 0.26427066
0.054624576 -0.23340404 0.12570728 -0.20149358 -0.31406745 -0.005041072 -0.46952093 0.3018819
-0.13782789 0.10090852 -0.12052976 0.20377132 -0.028921554 -0.276936 -0.2452112 0.12922537
-0.21274206 -0.4316209 -0.24810977 0.09599643 0.06896723 0.109568365 0.05831574 -0.21847922
0.030298106 0.13897988 0.4720785 -0.20316026 -0.12699115 -0.35905167 0.25005564 -0.804287
00000000: 97c5 a9bd 5ae6 57be 6e8a 583e 6b26 49bd
00000010: 135e 69bd 9e96 b4bd de0b 9ebd 3035 5dbe
00000020: 038b 003d c6be 44bd dff6 f63b 3b5c 57be
00000030: 8fc8 a13d 4e75 b13e 1980 81bd e379 a3be
00000040: 6153 babd 4474 d7bc 94f5 59bd e2c5 a93c
00000050: 3474 4c3e 03be a0bd 3fd2 f23d e543 34be
00000060: 7540 88be c506 63be 0085 183e 4088 fabd
00000070: ceee 9abe 1ca8 96be 6482 80be 8f35 87bf
00000080: ca41 ccbd 42bd 143e 2e9b 523e 3022 58be
00000090: 8c4b 5c3c 493a 85bb 175b 5c3b 6700 153e
000000a0: ece2 c33e 84d6 083e 0a3b 85be 41a7 a8bd
000000b0: affb 1b3e 360a 433e 0c82 a7be 8015 553e
000000c0: fa30 ff3d bc44 9b3e 0b6b 883e 1af3 6dbc
000000d0: 2b88 a4bd 0822 46be 36de 9dbc 100c b1be
000000e0: c59b bfbd 15b9 773c 3c6b 703d 7180 34be
000000f0: 7313 1f3f 0878 f23e e73c 4b3e e024 cf3d
00000100: 3618 a5be c4cd 81be 4bd6 3bbd 989e b53e
00000110: eab7 8ebe 3a21 1e3e b826 2dbd 720a 75be
00000120: b06d 9dbe 839d 2abd a559 a0bd 9167 3dbe
00000130: 3ca2 553e f6a7 c6be b4a6 f03d 51f3 923d
00000140: 0cdf 643d 3b44 c93d 6791 03be 1ecc 8f3e
00000150: 367b 45be 8be2 543e 01dc 1cbf c416 d8bd
00000160: 78d7 1f3e 844d 20be 97e5 3bbe 7a04 98be
00000170: 246f 45bd 506f 8b3e 5acf 05bf 6fda 2fbe
00000180: 5f0e 123f e35d 303e 662f b93d dd1f 1e3d
00000190: c5ce 553e c5bc aabd f3ed dfbd 646e f7be
000001a0: 90c1 5bbe fef9 323d f5eb 0c3e 7ef6 533e
000001b0: cd9b d43e 5be2 ecbc 903c 03be 982b 5fbd
000001c0: 0097 0bbe 88ca 043e e682 a3be c9ad 64bb
000001d0: 86ee e53e 32a5 41be bef3 3c3a 5763 8bbe
000001e0: cec7 f0be 88da 76bc 92d9 9fbe 1fb3 07bb
000001f0: 3d85 8d3e 5d79 a43d 726f e2be d97a a1bb
00000200: 0f69 83be 8083 7abe 001c b6be ff9f 0e3e
00000210: 2bb5 2bbb 76a5 70bd 1007 c63d 1036 683f
00000220: 8b90 093e 99aa 56be a451 213d 99f4 f43e
00000230: 256d 743d b1e0 ebbd 4d9b 1e3e 140c 9f3e
00000240: b84b 2e3b 0d04 ba3e 943e c83e deab 10be
00000250: 396b 373d abe1 243b 8829 2cbd c61e 4cbf
00000260: 86c6 13be 08e6 f1bd 4468 55bc 993d f23e
00000270: 9468 7abe 587a 703d 94c4 49be 3629 9ebe
00000280: 766c acbe 3a6d 7db9 85ce 353e 8a41 193e
00000290: 773c cbbd 908e 2fbd c486 99be b7cd c5bd
000002a0: c8d8 58be 30fb 2ebf 8ab2 f0be c648 b13d
000002b0: 12bd 5b3e 9b61 18bf 98f2 363e 2674 de3d
000002c0: 95a7 a63d fb2f 91be 4eeb 85be 0df1 25bd
000002d0: f3d0 3dbe 98a6 293e 756f dd3d 590c 1cbc
000002e0: ba9c 193f b12c a6be 41e5 973e de45 293f
000002f0: 7264 92bd 88c1 193d 5d85 7f3d 1b7c f53d
00000300: a10f b4bd 87c0 f5bd a89e 75bd f53c b7ba
00000310: 84b0 293f 4139 1cbe f919 dd3e f409 6c3e
00000320: 75e3 0e3d 254c 833c 690d edbe 9b66 693d
00000330: 058f 2ebb 72f9 4d3e e5b6 203e 9fbc 523e
00000340: 6da3 f8be f87b 35be f4ca debd b477 d1be
00000350: 8910 8e3c dcb8 13bf cf03 a63d e4c2 833e
00000360: 78bb 3b3d e61f 00be 6761 d4bd dd9d e03e
00000370: 6fdf 313d 5b33 a83d 95ff 5f3d 7c4e 873e
00000380: 05be 5f3d 7801 6fbe 69b9 003e 5554 4ebe
00000390: 73cd a0be 942f a5bb 0c65 f0be 4490 9a3e
000003a0: c122 0dbe 20a9 ce3d 4fd8 f6bd 6ea9 503e
000003b0: e5ec ecbc 8eca 8dbe a518 7bbe a853 043e
000003c0: 0ed9 59be 6afd dcbe 7d10 7ebe c799 c43d
000003d0: b13e 8d3d 6165 e03d 7cdc 6e3d 04b9 5fbe
000003e0: bc33 f83c be50 0e3e 46b4 f13e 3e09 50be
000003f0: f809 02be 9fd5 b7be 4b07 803e c1e5 4dbf
