data/gru/ptb/adamax/fitstats/model/model.pkl_05.npy (npy, 345168 bytes, 1 tensors)

array f4 [337, 256]
0	0xbeabce38	-0.3355577
1	0x3e8b715b	0.2723492
2	0xbdaf1703	-0.08549311
3	0x3ab7639e	0.001399148
4	0x3ea2e799	0.3181732
5	0xbde3d176	-0.11123936
6	0x3ea7a6e5	0.32744518
7	0xbe9345ae	-0.287641
8	0x3f1717d4	0.59020734
9	0xbebc83b7	-0.3681924
10	0xbe83cdbb	-0.25742897
11	0x3e0f4d08	0.13994229
12	0xbf3268b0	-0.6969099
13	0xbdca5ddc	-0.098811835
14	0xbe8d04db	-0.27542767
15	0x3e9ec682	0.31010824
16	0x3db75407	0.08951574
17	0xbe9436fa	-0.28948194
18	0x3dd770e6	0.105195805
19	0x3d96b798	0.073592365
20	0xbe41eb6e	-0.18937466
21	0xbeb5b228	-0.35487485
22	0x3eb4c820	0.35308933
23	0x3db43e1c	0.08800909
24	0xbe352544	-0.17689997
25	0xbce99ab3	-0.02851615
26	0xbe2f1be5	-0.17100485
27	0x3e191029	0.14947571
28	0xbef8a77b	-0.48565277
29	0xbeaafdf6	-0.33396882
30	0xbdf9c2fc	-0.121953934
31	0xbeb19472	-0.34683567
32	0x3e0b58e9	0.13608135
33	0x3db7939f	0.08963703
34	0x3eda66fb	0.42656693
35	0xbede8843	-0.43463334
36	0x3e90df5d	0.28295413
37	0x3f1181fe	0.5683898
38	0xbe9ad035	-0.30236974
39	0xbe16ca9f	-0.14725731
40	0x3d1d28c6	0.038368963
41	0x3ec58f6b	0.38585982
42	0x3ea2b869	0.3178132
43	0x3e1bdef4	0.15221769
44	0xbddd8eb8	-0.10818237
45	0x3da1bf91	0.078978665
46	0xbe48c4e0	-0.19606352
47	0xbf0dfa16	-0.55459726
48	0x3dabc913	0.08387961
49	0xbe254d3e	-0.16142747
50	0x3e9768cc	0.2957214
51	0x3ebde3c6	0.3708784
52	0xbe7b061d	-0.24514051
53	0xbc66d3e5	-0.0140886055
54	0x3e9159d5	0.2838885
55	0xbe8ca000	-0.2746582
56	0x3e1912d1	0.14948584
57	0x3eca6752	0.39531952
58	0x3d245489	0.04011968
59	0x3da01fac	0.07818541
60	0x3e0173f3	0.12641887
61	0xbe998665	-0.29985347
62	0x3e937104	0.28797162
63	0x3c9a2777	0.018817646
64	0x3e992222	0.29908854
65	0x3e32905f	0.17437886
66	0xbde3eef0	-0.11129558
67	0x3ef99428	0.48745847
68	0x3f4c57b4	0.79821324
69	0x3e95a5a8	0.29227948
70	0xbd30cdda	-0.043165065
71	0x3dcb8985	0.09938339
72	0xbeac03f2	-0.3359676
73	0xbdd18651	-0.10230697
74	0x3e41c969	0.18924488
75	0xbe6144a2	-0.21998838
76	0xbe03c9ef	-0.1287
77	0x3c246794	0.010034461
78	0x3ee332ec	0.44374788
79	0xbe534e82	-0.20635417
80	0xbf193d9d	-0.5985964
81	0x3f1112a1	0.5666905
82	0xbc72043e	-0.014771519
83	0xbeab0b44	-0.33407032
84	0xbd4f3ed4	-0.050597027
85	0xbee59702	-0.44841772
86	0x3d8963ac	0.06708464
87	0x3e4b6db5	0.19866069
88	0xbe2255e6	-0.1585308
89	0x3ebce372	0.36892277
90	0x3c744f38	0.014911465
91	0xbf10e22f	-0.5659513
92	0xbec3e006	-0.38256854
93	0x3da8b28c	0.0823718
94	0xbd5846fb	-0.052802067
95	0x3ed85e57	0.42259476
96	0xbe50de21	-0.20397235
97	0x3d9bfca0	0.07616544
98	0xbe2426bd	-0.16030402
99	0x3eaed102	0.34143835
100	0xbd169458	-0.036762565
101	0xbd28c581	-0.04120398
102	0xbceac32a	-0.028657515
103	0xbd916f28	-0.071012795
104	0x3daeb110	0.08529866
105	0x3cc7f4e9	0.024408774
106	0x3f172aa9	0.5904947
107	0x3e07b143	0.13251214
108	0xbf15d4d4	-0.58527875
109	0xbe489b3c	-0.19590467
110	0x3e2a6db0	0.16643405
111	0x3e3f19e2	0.18662217
112	0x3e9d1bbe	0.30685228
113	0x3c267905	0.010160689
114	0x3dc6ff7b	0.09716698
115	0xbe180628	-0.14846098
116	0xbe32123d	-0.1738977
117	0x3eff47a9	0.4985936
118	0x3ec5c124	0.38623917
119	0xbf3fe878	-0.74964094
120	0x3d05dcc7	0.032681253
121	0xbd60248b	-0.05472235
122	0x3e386a63	0.18009333
123	0xbd67b8aa	-0.056572594
124	0x3b9d8ea4	0.004808264
125	0x3ce18e16	0.027533572
126	0xbeb6a1e9	-0.35670403
127	0x3ee83ea2	0.45360285
128	0xbea6b036	-0.32556313
129	0xbde1d8cb	-0.11027678
130	0x3ea38a45	0.3194143
131	0xbf100b15	-0.5626691
132	0xbea5dc04	-0.3239442
133	0xbe6d77f3	-0.23190288
134	0x3e33c9c9	0.17557444
135	0x3d41f26b	0.04735033
136	0xbea1dd1e	-0.31614012
137	0xbec8f52d	-0.39249554
138	0x3e88b064	0.26697075
139	0x3d34c64a	0.044134416
140	0x3d561e28	0.052274853
141	0xbe04c544	-0.12965876
142	0x3e3053fc	0.17219537
143	0x3e8d9c1c	0.27658165
144	0xbea1bd36	-0.3158967
145	0xbd0f7571	-0.03502411
146	0xbd2afe74	-0.04174657
147	0x3e665680	0.22493935
148	0x3d5a665d	0.053320277
149	0xbe2a173d	-0.16610427
150	0xbe8c1019	-0.27356032
151	0x3e881f7f	0.2658653
152	0x3d9db55d	0.07700608
153	0x3d8673ec	0.06565079
154	0x3edeb72e	0.4349913
155	0x3e016e95	0.1263984
156	0x3ee64788	0.4497645
157	0xbd5cbe74	-0.053892568
158	0xbeb43608	-0.35197473
159	0xbab6ca29	-0.0013945746
160	0x3dd70c41	0.10500384
161	0x3e7c3748	0.24630463
162	0xbe6452b5	-0.22297175
163	0x3e9f1069	0.31067207
164	0x3e542632	0.20717695
165	0x3ea01ea0	0.31273365
166	0xbe928284	-0.286152
167	0xbe785bb9	-0.2425374
168	0xbe80daf8	-0.2516706
169	0xbea2d413	-0.31802425
170	0x3e08fe4a	0.13378254
171	0xbe0fb8e7	-0.14035378
172	0xbe3a094f	-0.18167613
173	0xbe0671b8	-0.13129318
174	0x3e76658f	0.24062179
175	0x3ce9a913	0.028523004
176	0xbf3b9cd3	-0.7328617
177	0xbd90ec57	-0.07076328
178	0xbe2420d1	-0.16028143
179	0xbd546686	-0.051855586
180	0xbe97232e	-0.29519027
181	0xbdb93523	-0.09043338
182	0x3ed2b8bd	0.4115657
183	0x3e356e95	0.17717965
184	0xbec7092d	-0.38874188
185	0xbe8e41e0	-0.27784634
186	0xbdf28aea	-0.11842902
187	0x3dfe8f6d	0.124297
188	0xbe66ee3a	-0.22551814
189	0x3e1fe0c2	0.15613082
190	0xbdca3b91	-0.09874643
191	0xbe93e812	-0.28887993
192	0xbe4bb497	-0.19893108
193	0x3e3cb5ca	0.18428722
194	0x3dc1e70e	0.09467898
195	0xbec30263	-0.38087758
196	0xbebcb9b2	-0.36860424
197	0xbeaf492e	-0.3423552
198	0x3e9af8d8	0.30267978
199	0x3f191d31	0.5981017
200	0xbd156654	-0.03647454
201	0xbe25674a	-0.16152683
202	0xbe6b810a	-0.22998443
203	0xbdae0d98	-0.084986866
204	0xbec98927	-0.3936245
205	0xbc6cc4a0	-0.014451176
206	0x3e0a8758	0.13528192
207	0xbe9048e0	-0.281806
208	0xbbf25d0b	-0.0073963455
209	0xbd8ffd0b	-0.07030686
210	0x3e62792e	0.22116539
211	0x3ea328c0	0.31867027
212	0x3ea53760	0.3226881
213	0xbe3aa236	-0.18225941
214	0x3e12d497	0.14338909
215	0xbcd42322	-0.025895659
216	0xbcb5d51e	-0.022196349
217	0xbeb87a52	-0.36030823
218	0xbf1013da	-0.5628029
219	0x3c9b7161	0.018974962
220	0x3dd8c513	0.10584464
221	0x3d0561f7	0.03256413
222	0xbea1dd1c	-0.31614006
223	0xbeb08dc8	-0.3448317
224	0x3df1f1e7	0.11813717
225	0xbdc27fa9	-0.094970055
226	0x3f047351	0.5173846
227	0x3f20a231	0.62747484
228	0x3e5d1a63	0.21592097
229	0xbe06d9d8	-0.13169038
230	0xbe8a44b6	-0.27005547
231	0xbea8714b	-0.32898936
232	0xbe87cdf8	-0.2652433
233	0x3e77d127	0.24200879
234	0xbde27f92	-0.11059488
235	0xbe4c9983	-0.19980435
236	0x3debef15	0.11520211
237	0xbe4e2196	-0.2013
238	0x3e29639d	0.16541906
239	0x3ea2ecbf	0.31821248
240	0x3cd9f2f5	0.026605109
241	0xbe641cc8	-0.22276604
242	0xbee807ae	-0.4531836
243	0x3e7fac12	0.24967983
244	0xbc59991e	-0.013281135
245	0x3d272e56	0.040815674
246	0xbecd278d	-0.40069237
247	0xbd50a86f	-0.05094188
248	0x3e9400f3	0.28906974
249	0xbec866e6	-0.39141005
250	0x3d4fb23a	0.05070708
251	0x3e03e29b	0.12879412
252	0xbf4e3871	-0.8055487
253	0x3dcaafa3	0.09896781
254	0x3ec078d3	0.37592182
255	0xbdc7d0fc	-0.097566575
