data/gru/ptb/adamax/fitstats/model/model.pkl_09.npy (npy, 1104 bytes, 1 tensors)

array f4 [256]
00000000: c6e6 fbbc 9737 eb39 5b96 1c3d 5d0c e1bc
00000010: 206a c93d d106 3b3d 503e 233c 060e 433d
00000020: e89b 76bb 0c64 3cbc 4012 ca3c a505 7839
00000030: 7de6 ee3d e01d c6bc fadf cd3d d640 02bc
00000040: ea6d b8bc 7242 043e c61a f63b a3e4 bc3c
00000050: 2778 1a3d f87d d83c 0513 c1bb 3746 37ba
00000060: 1825 36bd 407d 063b afbb c2bb 131e 343d
00000070: 5c94 f7bc fd79 eebb 279f e43c 892d 4dbd
00000080: 78f0 583d 30f3 e53c 9f52 2bbb 6213 55bb
00000090: 3281 123d 8798 0abd 25bc 56bd 58ef 443d
000000a0: 13cb 253d b945 113d 9819 4c3c 9981 983b
000000b0: 09ff 433d 87e3 8b3c 19c3 143d ab62 dabc
000000c0: 9e70 d4bd 3456 5d3d fd28 ccbc d16b 28bd
000000d0: 17e9 fe3c a2d1 033c 85d4 b43c 5486 20bd
000000e0: c70e e13c 9a6c 883d b617 093e 3e69 1b3d
000000f0: 42cf e53c 7f6d 9dbd 77bc b63d 9391 b53c
00000100: b6fd ce3c 5a98 8a3d 79f2 db3d 3510 503d
00000110: 84c1 0a3d 40e0 c23c 34dc 80ba 014b 513c
00000120: 77d4 cd3d 6e01 f0bc 526c bc3d 2b1d 733d
00000130: 5832 b63d d552 6e3d 5ce5 04bd 7acb 91bd
00000140: e88c 1a3d 6cc3 59bd 2bdf 67bd 08b7 713d
00000150: 46d2 08bd cc2b 6639 9e68 bf3b 1085 8fbb
00000160: 7b18 273c 5bc7 94bb a67d 343d 3232 463d
00000170: a8e2 5539 97ec 7dbc 6ed8 253d b3a3 b8bc
00000180: 55a2 f2ba b735 c73c 7f21 d6bb d32a b03c
00000190: 2916 e4bd c422 fe3c 83fd 5e3d b201 95bb
000001a0: 91e7 af3c 8262 953b d512 443d 5461 14bd
000001b0: fbb6 9cbc 4b33 87bc 9904 213d 1b20 cebc
000001c0: 583f 1dbc 118a b2ba 5c8c 01bd 6355 453c
000001d0: a17d 37bc 761c 673d 8413 c33d 8d91 13bd
000001e0: d989 823d 85eb 193d aa40 f8bc 4c5c 203c
000001f0: 0e77 043d b1b5 efbc 5e89 76bc 1056 123c
00000200: d4dd a43d 16a6 3cbc 50ba 9b3c 7dd7 0c3b
00000210: d393 91b9 21c6 f83c 9dbf c73b 3008 00bb
00000220: a3f6 b63d a25b 073d 3b7f c6bc b1d5 f9bb
00000230: 4de3 983c 4189 0dbc 3a0b d9bd c450 08bd
00000240: 93ed 09bc dc7f bb3c 4943 1a3d e61c 373d
00000250: f2ed a03b d2ac 2abd 1dcb b23d 6430 b53c
00000260: 62e9 f6bc bd09 b43c dce5 7abb 20b8 d03c
00000270: c241 d53b 93d0 1b3d c221 c83c 9f2c 403d
00000280: b3d9 5dbd c6c5 5a3d 9301 2c3d b616 82bd
00000290: a389 873d f692 073d 5d4b c73c f5b6 a3bc
000002a0: 52f1 ba3c 6ef3 6a3d 8f18 0dbd 1af3 14bd
000002b0: c350 143d dc26 fe3c 1c3a 98bc 6ff2 403c
000002c0: 1171 763d 0858 07bc 665b 80bd 846d c6bd
000002d0: 3d1f ef3a e9ec 3fbd e716 be3d c2c8 16bd
000002e0: 07e1 8cbc f543 8c3c 0a73 b63d a807 c43b
000002f0: e86e 7cbd 96c8 4dbd e81b 9dbc 81d5 aabc
00000300: ce4a d9bd 4220 85bd b590 bbbc 8709 2f3c
00000310: c179 4ebb 5d40 723d c27d 7a3c 23aa 8c3c
00000320: 4650 2a3d a7ee 503c 4bb9 f1b9 65ff a8bc
00000330: 0d00 4bbc 72b3 783c 9eb7 7abd bf3c 79bd
00000340: 2ae2 0cb9 5e5d 46bd b92c e9bc 5152 293d
00000350: 236c 4f3d 4773 ed3c 5efd 523d 8c33 5cbc
00000360: f415 8e3b e026 cfbc 2f91 a5bb 5678 e2bc
00000370: ea00 c63a 4674 43bd a402 8c3c f635 66bc
00000380: 230c 543d 8e72 52bd 88a8 8e3d 6eb4 e03c
00000390: ea62 c33b 02ec dcbb 554a eebc 6579 943c
000003a0: 2b9b 84bb 7a10 32bd bc69 c1bc e973 0abd
000003b0: 2288 c23b 6c75 453b d6df 853d 9cc4 bcbc
000003c0: 503d 0c3d f92c 003d 7fca 27bd b16a 0bbd
000003d0: 3a9a 16bd 6df1 47b8 bcc6 c4bc b2a4 57bc
000003e0: af4e 06bb 76ac 24bd 75ea 8b3d 5b46 183d
000003f0: 322e 703d 3190 423c 8ad4 ee3c 8ec4 f9bc
-0.03074969 0.0004486411 0.038229328 -0.027471716 0.09834695 0.045660798 0.009963587 0.047620796
-0.0037629548 -0.011498462 0.024666905 0.00023653226 0.11665056 -0.024184167 0.10052486 -0.007950028
-0.022513349 0.12915972 0.007510516 0.023058241 0.037712242 0.026427254 -0.00589216 -0.0006991359
-0.04446897 0.0020521432 -0.005942784 0.043973994 -0.03022211 -0.0072777257 0.027907921 -0.050092254
0.052963704 0.028070062 -0.0026141775 -0.0032512774 0.03576774 -0.033836868 -0.052425522 0.04807982
0.04047687 0.035466883 0.012457274 0.004654121 0.047850642 0.017076267 0.036318872 -0.026658377
-0.103730425 0.054037288 -0.024921888 -0.041118447 0.031117005 0.008045586 0.022073993 -0.039190605
0.027472867 0.06661339 0.13387951 0.037942164 0.02805293 -0.076869 0.089226656 0.022164142
0.025267463 0.0676734 0.10739607 0.050796706 0.033875957 0.023788571 -0.0009831251 0.01277423
0.1005029 -0.029297557 0.09200348 0.05935399 0.08896321 0.058184464 -0.032445297 -0.07118888
0.037732035 -0.053164884 -0.056609314 0.059012443 -0.033403657 0.00021950825 0.0058413288 -0.004379876
0.010198708 -0.0045403666 0.04406514 0.048387714 0.00020397699 -0.015498302 0.040489607 -0.022538995
-0.0018511513 0.024317605 -0.0065347548 0.021504795 -0.11137039 0.031022437 0.054440986 -0.0045473212
0.021472724 0.004558862 0.047869522 -0.03622563 -0.01913022 -0.01650395 0.039311025 -0.025161793
-0.009597622 -0.0013621469 -0.031627998 0.012044284 -0.011199386 0.056423627 0.09525207 -0.03602748
0.063739486 0.037578125 -0.030304272 0.00978763 0.032340102 -0.029261442 -0.015047399 0.008931652
0.08050123 -0.011514207 0.01900974 0.0021490746 -0.00027766693 0.030367913 0.00609584 -0.001953613
0.08933761 0.033046372 -0.02423059 -0.007624351 0.018663073 -0.008638681 -0.105978444 -0.03328015
-0.0084184585 0.022888117 0.037661824 0.044705294 0.004911178 -0.04166872 0.08730147 0.022117801
-0.030140582 0.0219773 -0.003828398 0.025478423 0.006508083 0.03804071 0.02443016 0.046917554
-0.054162692 0.053411268 0.04199369 -0.06351988 0.06618049 0.033099137 0.024327928 -0.019984702
0.022820149 0.05736106 -0.03444725 -0.036364652 0.036209833 0.031024389 -0.018582396 0.011776551
0.060166422 -0.008260734 -0.06267433 -0.09688857 0.0018243563 -0.046856795 0.09281712 -0.03681255
-0.017197145 0.017122248 0.08908661 0.005982358 -0.061629206 -0.05024012 -0.019178346 -0.02085376
-0.10609971 -0.06500293 -0.02289615 0.010683424 -0.0031505676 0.059143413 0.015288772 0.017170971
0.04158046 0.012752212 -0.00046105156 -0.020629594 -0.012390149 0.015179502 -0.061210267 -0.060848948
-0.00013435693 -0.048428886 -0.028463708 0.04133827 0.050640237 0.028985633 0.05151116 -0.013440024
0.004336113 -0.025287092 -0.0050527076 -0.027645271 0.0015106474 -0.04771831 0.017091103 -0.014050951
0.051769387 -0.05137878 0.069657385 0.027429786 0.005962719 -0.0067420015 -0.029088179 0.018124292
-0.004046818 -0.043472745 -0.023609988 -0.033801947 0.0059366385 0.0030129803 0.06536834 -0.02304297
0.03423816 0.03129289 -0.0409646 -0.034037296 -0.036768176 -4.7670143e-05 -0.024020545 -0.013161825
-0.0020493676 -0.040203534 0.068318285 0.03717647 0.058637805 0.011875198 0.02915408 -0.030489232
