data/gru/ptb/adamax/fitstats/model/model.pkl_13.npy (npy, 83024 bytes, 1 tensors)

array f4 [256, 81]
000000 4a 31 62 bd ab 8e eb 3d 63 d2 cc 3d 14 8e 8c 3c
       -0.055222787 0.11501821 0.100010656 0.017157592
000010 d9 97 51 3e a4 63 bc 3d 4a 6f bd 3d e0 f5 6a 3d
       0.20468082 0.091986924 0.09249742 0.05736339
000020 33 85 84 be 14 60 f5 bb 80 22 8f bd 42 7a 40 3e
       -0.25882873 -0.00748826 -0.06989002 0.18796638
000030 00 65 c1 be 34 ec a3 be f2 4e c0 3d 87 aa de bc
       -0.3777237 -0.32016146 0.093900576 -0.027180923
000040 49 be f7 3d fd e8 2a be 4c b3 a0 3d 8b 85 90 3d
       0.12096841 -0.1669044 0.07846698 0.07056721
000050 55 aa 02 3e 0f d9 c4 3d c3 1f 5f be 04 56 8f be
       0.12760289 0.09611713 -0.2178946 -0.27995312
000060 22 8b 7c 3d 3d f7 c3 bd c1 61 de 3d 54 61 e9 be
       0.061656125 -0.09568641 0.10858489 -0.45582068
000070 49 a7 7f be ab e1 88 be f4 31 04 3e 3a 11 1e be
       -0.24966158 -0.2673467 0.1290968 -0.15436259
000080 a5 9c d6 3d cb 70 02 3d f5 8a 4a bd d3 0a 02 3d
       0.10479096 0.03184585 -0.049448926 0.031748604
000090 83 79 88 be 55 a3 38 bd 68 32 dd 3d e2 6b 69 3e
       -0.26655206 -0.04507764 0.1080063 0.2279506
0000a0 1c 1e 55 bd cf bb 80 be 6c 68 58 be 73 25 32 be
       -0.052030668 -0.25143287 -0.21133584 -0.17397098
0000b0 fa df a1 be 55 80 4b be f8 2a 88 3e 98 9e 67 bd
       -0.31616193 -0.19873174 0.26595283 -0.05654773
0000c0 c5 b3 a2 3d a0 45 86 be 67 e5 08 be d6 45 99 bd
       0.079444446 -0.26224995 -0.1336876 -0.07484023
0000d0 df 91 26 be 74 ef 09 be 54 60 a6 be 67 f6 19 bd
       -0.16266583 -0.1347025 -0.32495368 -0.037588503
0000e0 cb 5f 23 3e e0 4f 96 3d a2 4f b4 be 87 16 93 bd
       0.15954511 0.07339454 -0.35217005 -0.07182031
0000f0 e9 d9 6d be db db 16 be 28 9f 0c 3e 6c 8e 95 be
       -0.23227657 -0.14732306 0.13732588 -0.29210222
000100 30 f3 07 be b3 31 1c 3e 44 04 26 3e fc e8 28 3e
       -0.13276362 0.15253334 0.16212565 0.16495126
000110 1f c7 9d 3d fb e5 3e be 3a b6 1a be 50 2f 01 bd
       0.07703995 -0.18642418 -0.15108576 -0.03153926
000120 27 1d 7f bb 21 38 9e be 53 68 d9 be 39 29 42 be
       -0.0038927288 -0.30902198 -0.42462406 -0.18961038
000130 f4 d9 37 3d d3 bd 85 bd 8c 2f a8 3d 32 9a 81 bc
       0.04488559 -0.06530347 0.08212194 -0.015820596
000140 84 74 dc bd ec 99 6b 3e a3 52 53 3d cb 1e ed 3e
       -0.10764411 0.23007935 0.05159248 0.46312556
000150 9e 3e 56 3e cf 8f bb bd ee d2 46 3e 36 ce 8d be
       0.20922324 -0.09158289 0.19416401 -0.2769639
000160 9a 26 44 be 77 f2 ea 3e 6e 65 6e be c2 82 e4 3d
       -0.1915535 0.4588811 -0.2328088 0.111577526
000170 b7 ef 56 be d2 03 52 3e 35 e1 32 3e af 8f b5 3e
       -0.20989881 0.2050927 0.17468722 0.35461184
000180 41 36 08 3e 3f 49 3f be 62 b9 22 be 43 d2 3f 3e
       0.13301946 -0.18680285 -0.1589103 0.18732552
000190 98 a6 37 be 68 5e a2 be 4a b5 10 3e e8 12 1e 3f
       -0.17934644 -0.3171265 0.14131656 0.617476
0001a0 c3 71 3f be 67 c8 f1 3e e7 12 9f 3e b3 bb 3d 3e
       -0.1869574 0.47223207 0.3106911 0.18528633
0001b0 74 88 48 3f ae fb d9 3d 3d 36 26 3e ee 99 1c bd
       0.7833321 0.10643707 0.16231628 -0.038232736
0001c0 c9 2b 3e bd 80 49 80 3e 6f 98 97 bd e8 5f b7 3c
       -0.046428476 0.25056076 -0.07402121 0.022384599
0001d0 1e 7a 11 3f a2 ef 76 3d f4 17 09 3e f5 9d 94 be
       0.5682696 0.060287125 0.13388044 -0.29026762
0001e0 e6 fe 37 be 04 24 e2 3e 9e ec d6 3e ae 5c 29 3e
       -0.1796833 0.44168103 0.419774 0.1653926
0001f0 03 7a 33 be 5d 86 d9 3c 03 b9 f6 bd 4d a3 b6 3c
       -0.17527013 0.026553327 -0.12047007 0.022294665
000200 82 c4 9c bd 67 6a 9f bd 17 c4 03 be 9d b8 7b 3e
       -0.076546684 -0.077839665 -0.12867771 0.24582143
000210 60 0c 0f 3f 34 ea 96 3e f8 ce b5 3e aa 04 e6 bc
       0.5587826 0.29475558 0.35509467 -0.028078396
000220 99 dd 99 bd 63 3e a2 3e 83 ff 0e bf c8 e0 af 3d
       -0.075129695 0.31688222 -0.5585863 0.085877955
000230 a9 bb 05 3e 28 e6 f9 3e 19 76 37 3e d9 9c 8c be
       0.13059868 0.48808408 0.17916144 -0.27463415
000240 7a 49 d9 3e 21 2b b6 3e bc 08 f2 bd 33 a5 12 3f
       0.4243887 0.3557978 -0.11818072 0.57283324
000250 54 6a 8d be 7b f2 5b 3d b5 68 ad bd 9c f2 18 bd
       -0.27620184 0.053698044 -0.08467237 -0.037340745
000260 80 ea 83 3e ca 3d 21 bb 80 a5 22 be 0f ec 61 3d
       0.25764847 -0.002460348 -0.15883446 0.055156764
000270 75 43 60 3d 4d a6 37 be 8e 69 8b 3e f2 3f 13 be
       0.054751832 -0.17934532 0.2722897 -0.14379862
000280 52 af 03 3e b7 2b 7a 3d 97 2f c6 3d e6 5d e4 bd
       0.12859848 0.061076846 0.09677046 -0.11150722
000290 fa 70 26 3e 6a 0a 81 3e 40 c5 11 be 82 21 eb 3d
       0.16254035 0.25203258 -0.14235401 0.114810005
0002a0 bd 9b de 3d fc 04 9c bb d4 29 aa 3e d7 03 bc bd
       0.108695485 -0.0047613364 0.33235037 -0.0918042
0002b0 ba 96 81 3d 30 dd 17 3e 7d be 93 3e 16 e6 1d 3e
       0.06327577 0.1483047 0.2885627 0.15419802
0002c0 d4 33 3f 3e fe d9 33 3e 87 81 80 3d 61 31 fa bd
       0.18672115 0.17563626 0.062747054 -0.122164495
0002d0 6c b6 a3 b9 ad 9b e1 bd 52 5e 17 be bb 44 85 3e
       -0.00031225698 -0.11016021 -0.14782074 0.26029
0002e0 e2 bd a2 3e 44 59 73 3d fe fb 98 bd a7 1f d9 3d
       0.31785494 0.059411302 -0.07469939 0.1060174
0002f0 85 e5 08 3e 6c f0 55 3e a2 e6 26 3e e5 1c f0 bc
       0.13368805 0.20892495 0.16298917 -0.029310653
000300 b8 df ad 3e e3 b6 c9 3e c2 ee e8 3d cb 3d 39 3e
       0.33959746 0.39397344 0.113736644 0.18089978
000310 d2 31 b4 3e 81 85 91 3e 1f 6a 39 be 14 0e 91 3e
       0.3519426 0.28422168 -0.18106888 0.28331053
000320 d2 33 80 3d 0f 92 d1 3e a2 30 63 3e 7d 63 0e 3f
       0.06259884 0.40931746 0.2218652 0.5562056
000330 c9 6e 92 3e 3e 85 81 3c 42 c2 d9 3e 70 65 f6 3d
       0.28600147 0.015810605 0.4253102 0.120310664
000340 5b 12 97 3e 5d dd 81 3e db b6 2f be 63 51 d9 bd
       0.29506192 0.253642 -0.17159598 -0.106112264
000350 f2 f4 28 3e 65 9b 03 be e4 7f ec bd dd 7c 96 3e
       0.16499689 -0.12852247 -0.11547831 0.29392138
000360 5a 5b 99 3e ef 9e ff bd 2e 1c f3 bd 8d 5b 83 3e
       0.29952508 -0.12481486 -0.11870609 0.25655785
000370 44 29 db bd a5 73 14 be fa 23 93 3e 6d 43 35 3e
       -0.1070123 -0.1449724 0.28738385 0.17701502
000380 43 46 e9 bd 61 6d 19 3f df d8 8c 3e 97 4a 07 3f
       -0.113903545 0.59932524 0.2750921 0.5284819
000390 6c 10 44 3e c8 ed 13 be 32 03 d3 3e 4b 8b 54 3e
       0.1914689 -0.14446175 0.41213375 0.20756261
0003a0 81 33 78 3d 0f 4f 14 3d fb f8 57 3e 2d 1d 22 bd
       0.060595993 0.03620821 0.21091072 -0.039578605
0003b0 e6 8c 20 bd 5c a9 97 bc 5c 44 06 be 4b 37 8b 3e
       -0.03919687 -0.018513374 -0.13112015 0.27190623
0003c0 55 4d dd bd 64 aa a0 ba 02 e6 97 3d 6d d2 bc 3d
       -0.108057655 -0.0012257812 0.074169174 0.09219823
0003d0 eb c4 42 bd fe dd ec 3c 57 60 dd 3d cd c1 43 bd
       -0.047551077 0.028914448 0.10809391 -0.047792245
0003e0 60 81 5c bd e1 80 65 3e 6d 2f d3 bd 52 3d 35 3c
       -0.05383432 0.22412445 -0.1031178 0.011061983
0003f0 bd 3d 72 bd 67 b4 36 bd 03 a3 c7 3c 1e e9 23 3e
       -0.05914091 -0.04460564 0.024369722 0.16006896
