data/gru/ptb/adamax/fitstats/model/model.pkl_06.npy (npy, 524368 bytes, 1 tensors)

array f4 [512, 256]
00000000: 19bd 21bd cd61 54bc 7f85 fe3d 755d ab3c
00000010: 2d15 94bd 435f 81bd 1d5d 713d f151 0a3e
00000020: 5dda 55bc 12f5 d3bb 9d01 23bd 15c3 46bc
00000030: dbe9 44ba 5ded b0bb 90e5 d8ba ec76 8a3c
00000040: f3b3 57bc c48f 653b b319 eebc 210b efbc
00000050: b46b 213d 0410 d83c da39 bd3c f47c a33d
00000060: 4b9c 833c cabe cabc eedc 66bd 9fe7 48bd
00000070: 5571 d4bd 6ff9 bd3d c63b 2cbc c861 583d
00000080: 6ccd 73bb 4d7d 843d 28e0 e43c c80e 02bd
00000090: 9ed1 c4bc 43cd 7b3c d6b1 f3bb 6b33 b93c
000000a0: e416 34bc e22c 083e 8167 033d f244 73bc
000000b0: 102b 1c3d 73cc f63c eed6 a7bc e73d e13c
000000c0: f95c bb3c eef2 6fbb 652b a1bc 7e28 053d
000000d0: cd7a e33c 98c4 873d 0f35 193b c6f8 ecbc
000000e0: f548 a5bb 7e73 cdbc a2dc 08bd cc39 b2bb
000000f0: 2df9 0a3d bf1c 433c 7b82 f53b 8493 563d
00000100: 9da3 54be 7d0a 573d 7064 cc3d c20c f4bc
00000110: 2f8b 24bd 82a8 043d 2183 053c 5fd9 02be
00000120: 02d0 e73c 50bf 21bd 827a 9f3d 3bfb 843d
00000130: 8f88 203d 8e2e db3d a472 99bc 49c5 04bd
00000140: ca8c 3e3c 4d37 853d 6511 a33c 5cb6 643b
00000150: d3a1 e1bd b9d6 a0b9 361f 5f3d 3740 6a3c
00000160: 179c f83c 5dfa 2d3b 981f 923b ea2a 073d
00000170: 2f7b 8a3c 79cc 683d bf21 eabc 1162 553d
00000180: 223b 94bd 1625 033c 68e5 b13c 3dce 043c
00000190: d4a5 a63d 21f8 1c3c ebb1 dd3d 0fa8 c73d
000001a0: 6723 ad3c d7a8 6c3c b4b5 213d 2db7 a3bc
000001b0: ccc3 983b 56a8 e5ba 5c24 18bd e01e 3c3c
000001c0: afc3 26ba 2a89 90bc 176a 87bc 3bfd ba3c
000001d0: 1ad3 153d 39a4 503d dbde d1bc b7f9 8c3d
000001e0: da51 5abd f87e 433d 146b aa3d 1099 773d
000001f0: c9e8 c33b fbf3 cebc eb51 773d be7f 1b3d
00000200: c1af cd3d 1644 023c fcb1 fb3c ea53 da3c
00000210: e9f7 163c 9ada 70bc 37a8 03bd 724a 5c3d
00000220: 870f 1abe c278 84bb be50 1fbd 4739 d93b
00000230: 5a69 a23c 5006 2cbd f02d d63d 517a d0bd
00000240: 3c0b 08bd 9b45 ba3c 6bb6 15bd f1b0 2cbc
00000250: 71d2 b2bb 9d1b 713b 1035 03be 7244 97bc
00000260: bcfb 193d 6a57 c73b f4fe f43b f7b6 463b
00000270: f296 c5bc e0b7 80bc e38d b2bb a7e6 86bc
00000280: ed97 d0bc ed39 50bd 43f7 b9bc b874 bb3c
00000290: c098 cc3a 186f 323d 574e 863d 7995 56ba
000002a0: 7e75 09bc 7e69 eebd f98a 723d 4630 49bd
000002b0: 8a66 4ebd e981 a13d 12d5 c93d e9e9 353d
000002c0: 9a68 063c 8f6f 3e3e 58b9 693b 55fe b23d
000002d0: 9509 37bd 2159 e3bd 1eab 8abd c56c e1bc
000002e0: f5aa e9bc 60a6 3a3c b224 0b3e 33e1 15bd
000002f0: 124e 25bd bea9 60bc 6a9a 12bd 0760 71bd
00000300: 9958 d7bc 2154 08bd 6e11 6ebc e1f3 f53b
00000310: e7fe 07bd 5e85 963c ba31 91bd 0132 05bb
00000320: 23d7 083b 6345 ca3c 05eb d53c 9068 113c
00000330: cf8c 9f3a 1661 04bd 9dad ae3c 685d 3d3d
00000340: 293a b3bc 740b 62bd 1039 eb3c b91d b03d
00000350: 8c83 eb3d 4a06 f5bc 2e85 963c 44f4 eabc
00000360: 922c f4bc e92d d9bd f2e1 993a 028c 9b3c
00000370: 1291 253d e447 bb3c 968f d0bd 1c24 e63b
00000380: 1217 353c 2c8b c8bc 6d39 933c d6e0 4fbd
00000390: 9e4e 04bd 30b5 713d ef35 763b fd8e cf3c
000003a0: 0271 40bb 9a8b fbbc 21e2 e1bb 2068 60bd
000003b0: 4288 683c ca64 31bd 0d67 163e 7ff4 113c
000003c0: 17f7 ab3c 1f6b 853d aed0 0dbd 34f9 563c
000003d0: 9c88 a6bb 3492 223d cdbe 67bc 3567 58bc
000003e0: fb7c 5bbc a2a5 a53d 0dc1 c33a 5941 8e3d
000003f0: df52 47bd 9fd1 243d 4307 4abd b196 13bc
-0.03948698 -0.012962771 0.12427806 0.020918587 -0.072306015 -0.06316998 0.05892669 0.1350782
-0.01305255 -0.0064684236 -0.03979646 -0.012131472 -0.0007511654 -0.0053993897 -0.0016547907 0.01690241
-0.013165462 0.0035028318 -0.029064989 -0.029180111 0.039409354 0.026374824 0.023098875 0.07982817
0.016065737 -0.024749178 -0.05636304 -0.049049016 -0.10373179 0.09276091 -0.010512298 0.052827626
-0.0037201298 0.06469212 0.027938917 -0.031752378 -0.024025735 0.015368762 -0.007436971 0.022607526
-0.010991786 0.13298371 0.03208113 -0.014847981 0.038127005 0.030126786 -0.020488229 0.027495338
0.022871481 -0.0036613303 -0.019674012 0.03250932 0.027768517 0.06629294 0.0023377573 -0.028927218
-0.0050440975 -0.025079485 -0.033413537 -0.005439019 0.03392904 0.011908709 0.007492361 0.052386776
-0.20765539 0.052500237 0.099800944 -0.02979124 -0.0401718 0.032387264 0.008148939 -0.12778233
0.028297428 -0.03948909 0.077870384 0.06493231 0.039192732 0.10702239 -0.018731423 -0.03241471
0.011630246 0.065046884 0.019905755 0.0034898734 -0.11017194 -0.0003067756 0.054473124 0.014297537
0.030347867 0.0026546933 0.0044593327 0.03299991 0.016904442 0.056835625 -0.028580545 0.052095477
-0.07237841 0.008004447 0.021715835 0.008105812 0.08137098 0.009580643 0.10824951 0.097488515
0.021135045 0.014444551 0.039479926 -0.019984806 0.0046620127 -0.0017521481 -0.03714405 0.011481971
-0.00063615566 -0.01764353 -0.01653008 0.022825828 0.036578275 0.050937865 -0.025618961 0.06883567
-0.053300716 0.04772851 0.08321205 0.060448706 0.005978678 -0.025262823 0.060380857 0.03796362
0.10043288 0.007950803 0.030724518 0.026651341 0.00921438 -0.014700556 -0.032142844 0.053781934
-0.15044986 -0.0040427158 -0.03889536 0.0066291424 0.019825626 -0.041998208 0.10457981 -0.1017958
-0.03321384 0.022738269 -0.03655092 -0.010540233 -0.0054572155 0.003679014 -0.1281321 -0.018465254
0.03759359 0.0060834186 0.007476682 0.0030321458 -0.024119828 -0.015712678 -0.005449043 -0.016467405
-0.025463069 -0.050836492 -0.022700911 0.022882804 0.0015609488 0.04356298 0.06557911 -0.00081857253
-0.008389829 -0.11641215 0.059214566 -0.049118303 -0.050390758 0.078861065 0.09855093 0.044412527
0.00820365 0.18597244 0.0035663452 0.08739916 -0.044686873 -0.11100984 -0.06770919 -0.027517686
-0.028523901 0.011392206 0.13588217 -0.03659172 -0.040357657 -0.013712345 -0.035791792 -0.05892947
-0.026287364 -0.033283357 -0.014530523 0.0075058793 -0.03320208 0.018374141 -0.07089563 -0.0020323994
0.0020880185 0.02469129 0.026113043 0.008875027 0.0012172702 -0.03231915 0.02132302 0.046231657
-0.021878319 -0.055186704 0.028713733 0.08599419 0.114997 -0.029910225 0.018374052 -0.028680928
-0.029806409 -0.1060446 0.0011740311 0.01898766 0.040421553 0.022861429 -0.10183637 0.0070233475
0.011052864 -0.024480425 0.017971719 -0.05075153 -0.032301538 0.059010684 0.0037568768 0.025336737
-0.0029364233 -0.030706216 -0.0068934117 -0.0547868 0.014192643 -0.04330901 0.14687748 0.00890839
0.020991845 0.06514572 -0.03462284 0.013120938 -0.005082203 0.03969021 -0.014144612 -0.0132082
-0.013396497 0.080882326 0.0014934853 0.06946058 -0.048663016 0.040238973 -0.04932333 -0.009008096
