data/gru/ptb/adamax/fitstats/model/model.pkl_10.npy (npy, 1104 bytes, 1 tensors)

array f4 [256]
00000000: f3ff 28be 5ea4 40bd f927 29bb f163 9a3d
00000010: 3cd8 95bc a1c2 513d 24a9 bd3c 2a6c a93d
00000020: 7add 85bc 092b 1b3b 2fa1 1e3d e62a bb3c
00000030: ac29 fdbc 1e8a 16bd 6d1c 1d3d 2d7f 14bd
00000040: 52f7 953c 8325 3a3d 9805 793c 5439 82bc
00000050: 61e3 a63c 82cc 383d 2d32 a9bd 8bd4 81bd
00000060: 96a4 08bc 4650 76bd bf1c 9dbd 02de 9a3d
00000070: b060 9dbb 26e8 8ebd b6f3 a6bd 19a8 06bd
00000080: 2f16 e7bc d430 0bbd 6a9f 45bd 4436 dcbc
00000090: c64a 9bbd ee0e 663b 6b33 82ba f3ed d9bc
000000a0: f048 803c 4881 a63c f5e0 7bbd a940 03bd
000000b0: 14d5 9cbd 375e 683c d020 85bd c09e dfbc
000000c0: 5f4b b63c 3734 e7bc 0d74 423d 53fb f2bd
000000d0: 4649 f8bb 038c 01bd d83d 32bc b628 94bd
000000e0: 03ef 42bd 1687 6bbb 912e 473c 4da9 89bc
000000f0: 8237 febb 2808 3f3d 0349 8cbd b81d 5a3d
00000100: 76cb debd 3d92 15bd 572c 84bd d576 063e
00000110: cc8b 95bd b04b dbbb c771 0fbd 9aea 773d
00000120: 9808 f93c a0d8 9abd 9d83 e6bc 48e6 a63d
00000130: ecc9 97bc e2fc bdb9 b6b3 d43c 5d2c 203b
00000140: 72df 433d 0a5c 603d 84e3 adbc 3e4d f23a
00000150: 0df6 563d f9be 3bbb 8992 6d3d 2ded a6bc
00000160: f088 d23c 9227 f0bd 8d53 a1bd 1435 eb3d
00000170: de0b 10bd 1a8e 8c3d 9da0 18bc b012 6cbd
00000180: 6711 173e d801 463d ea3c 95bd b9c8 e53c
00000190: 8448 b13c cd8f 42bd 61cd 71bc f2cf e83b
000001a0: ad7d cbbc 4a4d 64bc 3c01 b4bc b44b b4bc
000001b0: f40f 56bc 40ca 72bd 41dc e6bc 343f 7abc
000001c0: a294 703d 5f71 0fbd 550a 57bc 1333 15bd
000001d0: fdc2 853c c293 58bd 7147 b73d 0553 aa3d
000001e0: f4b3 903d 4aea eabd 7112 cf3c a411 8ebc
000001f0: 1260 323d f5d2 0dbd a7be babc af14 913c
00000200: 215a 6b3d 1692 64bd de38 48bd 0ebe a0bd
00000210: a101 053b 2137 cf3d df8a 4bbd 9dd2 873d
00000220: 6e84 98bd 9f8a 3e3c 2363 483c 8be7 01bd
00000230: 1157 1bbc feb2 55bd 42ad 443d cf3e 44bd
00000240: 8f1c 94bd a065 5d3d 3eb7 f33b 227e d13c
00000250: 04e6 123d f4c1 cfbd 7669 8abc 4055 a33d
00000260: 195a 8b3c 8760 003a 3092 e7bc 6d67 21bb
00000270: 1466 fd3d 0b29 32be b15e 993d 953e 08be
00000280: 24f1 923c fae8 dbbc eb12 bc3c eeef 343d
00000290: 4f63 e5bc 7628 b33d a35c 0d3d 6906 273c
000002a0: 8a53 733c e140 dc3c 85cc d13d 0a1a e7bc
000002b0: 50d0 a13d 5dfb ff3c bedc ea3b 7e97 8d3d
000002c0: 982c 5bbd b222 42bd 9f22 723c f00f 79bd
000002d0: 280d a6bb 756a d03b fc4c ad3d b216 a73d
000002e0: 9a7d d0bb 0ca9 c03c eb4b 1e3d 243b 733d
000002f0: e828 52bd c215 16bd e7f2 8fbc e2f1 b03d
00000300: 011c c33d 8ad8 38bd 4582 eb3c 9037 7ebc
00000310: 41fe 5bbd 7d9c 8dbd deff c2bc 7f35 093d
00000320: 5055 e03b 02a2 c8bc 7c0b 31bd 7771 123d
00000330: 3ce0 95bc af64 8a3d c8ea d3bc 3991 4cbd
00000340: 2715 1d3d 7253 a3bc b523 9dbc 90e3 d5bc
00000350: 9502 90bd 089e 263d 4572 553c 1ec6 3cbd
00000360: a8ee d3bd 592b 253d 47f0 96bd a73d 3f3d
00000370: 540f 523c 071c e63d 3a2e d33c 49eb 16bd
00000380: 1811 50bd 6c7a 473c 8bad ecba d00a 46bd
00000390: ee98 583b 7079 6b3d fedd 03bc 9b81 17be
000003a0: 024e ee3c b83a 3b3c 9d1a c13b f0fa d83d
000003b0: 1d6b 813d a210 abbc c374 dabc 4bef 0b3c
000003c0: d435 2abd 5d29 27bb 3b80 463d d15b a53d
000003d0: 059a 08bd b26a 56bd 626b 93bd 05a1 eebc
000003e0: d0e9 f73c 6cf4 4d3d a933 c3bb 327d 12bd
000003f0: 7508 993c 9609 95bc dc1f 8eb9 f243 72bd
-0.16503887 -0.047031753 -0.002581118 0.075385936 -0.018291585 0.051211003 0.023151942 0.08272584
-0.01634096 0.0023676774 0.038727935 0.022847604 -0.03090366 -0.036752813 0.038357187 -0.036254097
0.018306408 0.04544593 0.015199088 -0.015896477 0.020372095 0.04511691 -0.082615234 -0.063393675
-0.008340022 -0.06013515 -0.076714985 0.07561876 -0.004802786 -0.069778726 -0.08151953 -0.032875154
-0.02820882 -0.033982113 -0.048247732 -0.026881345 -0.07582621 0.0035104114 -0.0009933537 -0.02660272
0.01565978 0.020325318 -0.061493833 -0.032044087 -0.07657829 0.014182619 -0.06500399 -0.027297378
0.022252737 -0.02822314 0.047473956 -0.118643425 -0.0075770942 -0.031627666 -0.0108790025 -0.072343275
-0.04759122 -0.0035938672 0.012157098 -0.016804362 -0.007758082 0.046638638 -0.068498634 0.053251
-0.10878651 -0.036516417 -0.0645377 0.13131268 -0.07302055 -0.0066923723 -0.035020616 0.060526468
0.030399606 -0.07560849 -0.02813893 0.081493914 -0.018528901 -0.00036237302 0.0259646 0.0024440505
0.047820516 0.054775275 -0.021226652 0.0018486155 0.052480746 -0.0028647764 0.058001075 -0.020376766
0.025700063 -0.117262974 -0.07877264 0.11484733 -0.035167567 0.06863041 -0.009315637 -0.05763501
0.14752732 0.048341602 -0.07287009 0.028049814 0.021641023 -0.04750042 -0.014758439 0.007104867
-0.0248402 -0.013934443 -0.021973245 -0.022008754 -0.013065327 -0.059274912 -0.028181197 -0.015273858
0.058735497 -0.03502023 -0.013125022 -0.03642566 0.01632833 -0.052875288 0.08949173 0.08316616
0.07065573 -0.11470468 0.025277348 -0.017342396 0.04354865 -0.034625012 -0.022795988 0.017710058
0.057459 -0.05580338 -0.048882358 -0.0784875 0.002029516 0.10117937 -0.049692985 0.06631968
-0.07447134 0.0116297295 0.012230667 -0.031714957 -0.0094812075 -0.052172653 0.048016794 -0.04791146
-0.072320096 0.054051995 0.0074376157 0.02557284 0.03586389 -0.101444155 -0.01689599 0.079752445
0.017010735 0.0004897196 -0.02826795 -0.0024628297 0.123729855 -0.17398469 0.07488764 -0.13305123
0.01793725 -0.02684449 0.02295824 0.044174127 -0.028001456 0.08747952 0.034512173 0.010194399
0.01485146 0.026886405 0.10244087 -0.028210659 0.079010606 0.031247789 0.007167428 0.069136605
-0.053509325 -0.04739637 0.014778762 -0.060806215 -0.0050674863 0.006360347 0.08461949 0.08158626
-0.006362629 0.023518108 0.03864662 0.059382573 -0.051308542 -0.036641844 -0.01757188 0.086398855
0.09526826 -0.045128383 0.02874864 -0.015516177 -0.053709272 -0.069146134 -0.023803648 0.033498283
0.0068461075 -0.024491314 -0.043223843 0.03575274 -0.0182954 0.06757485 -0.025868788 -0.049943183
0.03835025 -0.01993725 -0.019182066 -0.026109487 -0.070317425 0.040678054 0.013027732 -0.046087377
-0.103482544 0.040324543 -0.07370048 0.046689656 0.012821037 0.112358145 0.025778878 -0.03684548
-0.050797552 0.012175184 -0.0018057091 -0.048350155 0.0033050138 0.05748886 -0.0080485325 -0.14795534
0.029089931 0.011427574 0.005893065 0.105947375 0.06319258 -0.020881955 -0.026667004 0.008540939
-0.04155524 -0.0025506832 0.048462134 0.08074153 -0.03335001 -0.052347846 -0.07198216 -0.029129514
0.030262858 0.050281927 -0.005957086 -0.035763927 0.01868079 -0.018193047 -0.00027108088 -0.05914683
