data/gru/ptb/adamax/fitstats/model/model.pkl_02.npy (npy, 524368 bytes, 1 tensors)

array f4 [512, 256]
0	0x3e2ea3d6	0.17054686
1	0x3d2b3198	0.041795343
2	0x3d82b2fb	0.06381794
3	0xbe1565b8	-0.14589584
4	0x3e2492cb	0.16071622
5	0xbd5ece33	-0.054395866
6	0xbd6fe3e2	-0.058566935
7	0xbdb9008a	-0.09033306
8	0x3d89a78a	0.06721409
9	0xbe946e16	-0.2899024
10	0x3c99c378	0.018769965
11	0x3e0f6241	0.14002325
12	0xbec02eff	-0.37535855
13	0x3dd9f06e	0.106415614
14	0xbdb89cf1	-0.09014309
15	0xbba193a0	-0.0049309283
16	0x3caec3f4	0.021333672
17	0xbd83f88f	-0.06443893
18	0x3ce9bce7	0.028532458
19	0x3e07cf07	0.13262568
20	0xbe8552f6	-0.26039857
21	0x3a2ed98a	0.0006669989
22	0x3e22c867	0.1589676
23	0x3d379d8b	0.04482798
24	0x39c6380d	0.00037807264
25	0xbd04a046	-0.03237941
26	0x3dc6d723	0.09709003
27	0x3d5bd4e6	0.053669833
28	0x3d3ce1e5	0.046113867
29	0x3d8ea77f	0.06965541
30	0xbe8a63b0	-0.2702918
31	0x3dc13cb0	0.09435403
32	0xbdd67bdc	-0.10472843
33	0x3e4af409	0.19819655
34	0xbe3b0dfa	-0.1826705
35	0xbc88169e	-0.016612347
36	0x3bffa5fc	0.0078017693
37	0xbde41d1d	-0.111383654
38	0xbe87f69a	-0.2655533
39	0xbd9ec49b	-0.07752343
40	0x3ccdb46d	0.025110448
41	0xbd49a06d	-0.04922526
42	0x3e0ab753	0.13546495
43	0x3d5c3f8c	0.05377154
44	0x3e5c0c5f	0.21489094
45	0x3c8a518f	0.016884593
46	0x3e905bd9	0.28195074
47	0x3d99c721	0.07508684
48	0xbcf8d933	-0.030377006
49	0xbd6c6959	-0.057717655
50	0x3d7e9413	0.062152933
51	0x3cbf5569	0.023356156
52	0x3d8bab2a	0.06819756
53	0xbdaaae28	-0.08333999
54	0x3d04e95e	0.03244912
55	0x3dca485c	0.09877083
56	0xbcca0bca	-0.024663825
57	0xbdf0ec45	-0.11763815
58	0xbd4fb270	-0.05070728
59	0x3e373606	0.17891702
60	0x3e167905	0.14694603
61	0x3cac0063	0.020996278
62	0xbd1efa84	-0.03881313
63	0xbd7b1808	-0.061302215
64	0x3e8b2161	0.27173904
65	0xbe43566e	-0.19075939
66	0x3d0e2832	0.034706302
67	0xbd58fb28	-0.052973896
68	0x3d8f65d5	0.07001845
69	0x3e822dc5	0.25425544
70	0xbe0dc019	-0.1384281
71	0x3cc5cca0	0.024145424
72	0xbdd12052	-0.10211243
73	0xbd8b1cc9	-0.067926
74	0x3d12f9cf	0.035882767
75	0xbde0a77a	-0.109694436
76	0xbc938409	-0.018007295
77	0xbe52d015	-0.2058719
78	0xbda78a72	-0.08180703
79	0xbe20bc19	-0.15696754
80	0xbe596376	-0.21229348
81	0x3daeeaf4	0.085409075
82	0x3d972f68	0.07382089
83	0xbdbd3153	-0.092379235
84	0x3ca2542e	0.01981553
85	0xbc4d9806	-0.012548452
86	0xbbf7a51d	-0.007557525
87	0xbe33235b	-0.17493956
88	0x3cf6c725	0.030124256
89	0xbd9afa9d	-0.07567332
90	0xbd50d7e9	-0.050987158
91	0x3ca9aa30	0.020711035
92	0xbd920b47	-0.07131057
93	0x3caa3127	0.02077539
94	0xbd37ded5	-0.044890244
95	0x3d581593	0.05275495
96	0xbdd7fcac	-0.1054624
97	0x3e1222b2	0.14271048
98	0xbc4859d1	-0.012228445
99	0x3d93cd58	0.072169006
100	0xbcdef282	-0.027215246
101	0x3d346e3b	0.044050436
102	0xbe17716a	-0.14789358
103	0x3de265b7	0.11054557
104	0x3cefafcf	0.029258637
105	0x3d23b58f	0.03996807
106	0xbdb4cfe5	-0.08828715
107	0x3c87fc0a	0.016599674
108	0xbc29a89e	-0.010355143
109	0xbc7e2991	-0.01551284
110	0xbd9c5f6d	-0.076353885
111	0xbe8a47cc	-0.27007902
112	0x3caa9907	0.020824922
113	0x3d8eb0be	0.06967305
114	0xbd1ecb6c	-0.038768217
115	0xbcad09ea	-0.021122891
116	0x3dc7f111	0.09762777
117	0x3dbeb7a5	0.09312371
118	0x3de02413	0.109443806
119	0x3c658733	0.014009285
120	0x3dd6bcd6	0.10485236
121	0xbdaece62	-0.08535458
122	0x3e2cc536	0.16872105
123	0x3d34ebe5	0.04417028
124	0xbe373efe	-0.17895123
125	0xbc83f693	-0.016108787
126	0x3e4bea60	0.19913626
127	0x3e23bfeb	0.1599118
128	0xbc34b291	-0.011028902
129	0x3e09937d	0.13435169
130	0x3cae5957	0.021282835
131	0x3d841dce	0.06450997
132	0xbea15e97	-0.3151748
133	0x3c464081	0.01210034
134	0x3d6bf8d0	0.057610333
135	0x3c22d092	0.009937422
136	0x3b1834cc	0.0023224829
137	0x3de535d3	0.11191907
138	0xbd72819e	-0.059205644
139	0xbea96b00	-0.33089447
140	0x3c36e56c	0.011163097
141	0xbe062505	-0.1310006
142	0xbe7051d6	-0.23468718
143	0x3bfc5848	0.0077009536
144	0x3dd421a0	0.10357976
145	0x3dba90fb	0.09109684
146	0xbbbfd995	-0.005854795
147	0xbdb33d4c	-0.08751926
148	0x3de5dcb6	0.11223738
149	0x3ea2012b	0.31641516
150	0x3b9f1e42	0.004855902
151	0x3d0bd53a	0.034138896
152	0x3de9c2bb	0.11414095
153	0xbe03062f	-0.12795328
154	0x3ccf04b1	0.025270792
155	0xbd667c81	-0.05627108
156	0xbda1d60c	-0.07902154
157	0x3d7e6afd	0.06211375
158	0xbd2cdfde	-0.042205684
159	0x3c2b9b9d	0.010474113
160	0x3e2a37eb	0.16622894
161	0x3d723e85	0.059141655
162	0xbe0d4df3	-0.13799267
163	0x3dd4e846	0.10395865
164	0x3e3a8e42	0.1821833
165	0xbdee8383	-0.116461776
166	0xbd9169f1	-0.07100285
167	0xbe686e1c	-0.22698253
168	0xbcc30b7e	-0.02380919
169	0xbc2fae09	-0.010722646
170	0xbe1d429a	-0.15357438
171	0x3d4be37e	0.0497775
172	0x3dd02340	0.101629734
173	0xbe3092a0	-0.17243433
174	0xbcd8dabd	-0.02647149
175	0xbe4a2bec	-0.19743317
176	0x3c3986e4	0.011323664
177	0x3b86815b	0.004104776
178	0x3dd6604a	0.104675844
179	0x3cdd4e01	0.027014734
180	0xbe0f5d2f	-0.1400039
181	0xbe340f26	-0.17583904
182	0x3d0b6ba9	0.03403822
183	0x3ca8b426	0.020593714
184	0xbca08252	-0.019593392
185	0x3c03cdc5	0.008044665
186	0xbdd6b517	-0.10483759
187	0xbeb2d49f	-0.34927842
188	0xbdc60918	-0.09669703
189	0x3ded95c1	0.11600829
190	0xbe4eaa08	-0.2018205
191	0xbe9f69ea	-0.31135494
192	0x3caa70e5	0.020805785
193	0x3e129f18	0.14318502
194	0x3e6fadb3	0.23406105
195	0x3e018cc8	0.1265136
196	0x3d467970	0.048455656
197	0x3dd1c443	0.10242512
198	0x3de2ed33	0.110803984
199	0x3d833b54	0.064078
200	0xbcf93c4d	-0.030424261
201	0xbb063085	-0.0020475697
202	0x3b4c51ec	0.003117676
203	0xbca40da0	-0.020026028
204	0x3d276211	0.040865008
205	0x3d06678e	0.0328136
206	0x3d0068f0	0.031350076
207	0x3e6c8283	0.23096661
208	0x3e676178	0.22595775
209	0x3e552903	0.20816426
210	0xbd54368a	-0.051809825
211	0x3e7b868b	0.24563043
212	0xbce5f83d	-0.02807247
213	0xbe34d13b	-0.1765794
214	0xbea6fcbf	-0.32614705
215	0x3d917bc1	0.07103682
216	0xbddfcf91	-0.10928262
217	0xbe8b3d6c	-0.271953
218	0xbe24a7ab	-0.16079585
219	0x3b378652	0.0028003645
220	0x3c3e8760	0.011628956
221	0x3e8d3906	0.27582568
222	0x3cb6d3c1	0.022317769
223	0xbcc0351a	-0.02346282
224	0x3d8d4fdc	0.068999976
225	0x3de5ccc3	0.11220696
226	0xbe310398	-0.17286527
227	0x3b51f1bc	0.0032034954
228	0xbde9c6a5	-0.114148416
229	0x3cc27a13	0.02373985
230	0x3d2ca72e	0.042151622
231	0x3d8fe6d0	0.07026446
232	0xbdf00bf2	-0.117210284
233	0xbe10cee2	-0.1414142
234	0xbeb2ad53	-0.3489786
235	0xbddf6e58	-0.10909718
236	0x3dcf27dd	0.10115025
237	0xbded4369	-0.11585123
238	0xbdba247e	-0.090889916
239	0x3d29a4e6	0.041417025
240	0x3d2cb1e1	0.042161826
241	0xbd9cea74	-0.07661906
242	0xbe2bcada	-0.167766
243	0xbd965524	-0.07340458
244	0x3de27979	0.11058325
245	0xbd4f46ea	-0.05060474
246	0x3de31be0	0.11089301
247	0x3dddd74d	0.10832081
248	0xbe1d0933	-0.1533554
249	0xbdb9d4db	-0.09073802
250	0xbcc2710c	-0.023735546
251	0xbd67fc30	-0.05663699
252	0xbce6fe7f	-0.028197525
253	0x3d3eff1c	0.04663001
254	0x3db0bc06	0.086296126
255	0x3c806153	0.015671408
