data/gru/ptb/adamax/fitstats/model/model.pkl_11.npy (npy, 1104 bytes, 1 tensors)

array f4 [256]
00000000: 063d 5b3b 9b4d e4bc f27b 1dbc 8870 613c
00000010: 88f9 843c 51ac 34bc fd5b 82bb cd1d 71bc
00000020: d758 2b3b 5026 7e3c 1978 bcbb b711 a73c
00000030: 9a41 7abb e91f 8abb e2bc d5bb f74d f33a
00000040: 7de5 eabb 8870 3e3c fcac 003c 7250 723c
00000050: 41a3 453c db37 8ebc b287 7638 1edc 323c
00000060: 0d2e 423d b932 9d3c b6cc ec3b 9413 ad3c
00000070: f63d a2bc 12f8 703c 228a b5ba dd09 c7bc
00000080: a8d7 803c c876 01bc ce9c 4cbb 39fc 8438
00000090: 3f6e bcbc c7cc b33c 680e b6bb 5556 c63c
000000a0: c20b 473c d366 92bc 3ce5 ddbc a2c6 f83d
000000b0: a438 94bb c59e 21bc 1f58 94bc c71a 9dbb
000000c0: 6feb d5ba 20cf 873c 38f4 d3ba c9e0 6ebd
000000d0: b2e1 c03c fe8e 82bd d606 6b3c f434 833c
000000e0: 0fe3 bd3b 456b ebbb f328 753c 5bae 4dbc
000000f0: 6b42 943b cd05 83ba b568 bc3b 69aa e7bb
00000100: d607 d3bb 6ba3 58bb 70c5 bb3b fc65 d6bc
00000110: ae21 a03c 1e25 8fbc 35a1 bebb dcc8 923c
00000120: 2fc9 843c 8170 173c 7fee 863c 1f64 a0bc
00000130: 0d49 debc c101 47bb 5952 783c 95bf bc3b
00000140: b1e4 d1bc 3b6d 493c 1f55 d1b8 49b3 3f3c
00000150: 326f afbc 02e8 9d3c 447b 0b3c b3b3 e13c
00000160: 2768 853c 0b9a 09bb deab 90bc df6b e9bb
00000170: 3773 8bbb e0cc 303c a4d5 013b 48fc 1b3c
00000180: f502 5abc 45cb 30bc 6972 b63a 5d86 a939
00000190: 3866 8dbc ee8f 66bd 3ccc a4bc 173d b3bc
000001a0: e1a0 343d cf4c c03b fc5c 0cbc 60a8 d2bb
000001b0: 00a6 a03d 8f2a b4bc 06d4 bf3b d0e8 a3bd
000001c0: 7288 8e3b de2a 4b3c 62a4 2a3c 85a5 37bc
000001d0: 332b 7c3c e90d 91bc a17b b93c 7c93 31bc
000001e0: 3a81 6dbc 52e8 05bc 3a6b 7abc 63e9 cb3b
000001f0: e777 c53b 67eb 443b e7a2 5abc 08ea 26bc
00000200: 8d9b c9bc 7e56 643c 70db f83b df7a 12bc
00000210: 21bb f23c 3069 bd3c ed10 d43c 7183 093b
00000220: 7c6f 22bb 218a 70bb 7e10 4dbb ddc3 8d3c
00000230: 07e7 14bc 84ea 803b b62f b0ba 1c29 f8bc
00000240: 3abc bbbc 62d1 3abc a6a0 77bb ae63 1dbb
00000250: 6413 3b3b 8893 7e3a 5752 ca3b 19df 6cbc
00000260: 3447 f3bc 7737 96bc 7879 973c 8e5a 973c
00000270: fd66 b43c b9b5 273c 499f 353c e4d4 6dbc
00000280: 7c9a adba de7b fe3c 4fb6 36bc f2e5 913c
00000290: 23c0 a8bc 0851 a53c 6114 56bc c529 f0bc
000002a0: c7cb 393b 3d80 0b3c 871e 77ba 275c a8bc
000002b0: 28f1 873c 455e d8bb 84fe 903c ada6 44bc
000002c0: 91e9 a3bc 9699 8c3c dbea cb3b af7d 3c3d
000002d0: 0055 60bc 2810 97bb bbfa 99bb f1b9 39bd
000002e0: 241f c5bc 044d aebc 1b30 06bc 0d25 4cbc
000002f0: 954b 97bb 3c89 80bb e5b5 293b 90c3 573c
00000300: d379 44be 5677 11bb 3085 10bc 7544 3f3c
00000310: f482 023c 36bd e33b 4d90 bebb 29ab a4bb
00000320: d6f5 68bd 17d4 4e3b b833 8b3d 4111 7cbb
00000330: 8a56 9ebb b5cd c83c 3bfe 20bb 9456 8b3b
00000340: cb49 0c3c debf 10bc 27e6 e13b 019c 48bc
00000350: 0eed 003c cc9a ab3c e356 65ba feb2 1cbc
00000360: 051c 35bc 29f6 273c 61d7 133b 0efc 663b
00000370: ae0d bfbb 3091 593c 078d a6bc b6ae b3bd
00000380: 4462 993a 94da 9bbb dc48 a03c 9c79 eb3b
00000390: 0a24 653c 7d01 b43c 1a3a 47bd 8a59 57ba
000003a0: e2c7 20b9 b61a 87bc a1c0 75bc a7cc 13bc
000003b0: 7edb fb3b e451 0b3d 2a96 a13c 3fe8 9eba
000003c0: b17b b7bc 0ca3 3abc c684 343b 5f0c 653c
000003d0: 1a70 5b3c 925f d8ba 8e43 f2bc df5a 0fbd
000003e0: 7a7b 383c 1432 933b a5bf 3ebb e173 ad3b
000003f0: e4c4 cbbb feae de3b 0fca c33a 748a 94bc
0.003345312 -0.027869036 -0.00961207 0.01375974 0.016232267 -0.011027412 -0.003978251 -0.014716578
0.0026145482 0.015512064 -0.0057516214 0.02039419 -0.0038186074 -0.00421523 -0.0065227607 0.0018562664
-0.0071684704 0.011623509 0.007853743 0.0147896875 0.012062849 -0.017360618 5.8777347e-05 0.010916738
0.0474072 0.019189226 0.007226552 0.0211275 -0.019804936 0.014707582 -0.0013850371 -0.024296695
0.015727833 -0.007901855 -0.0031221393 6.3412306e-05 -0.023001788 0.021948231 -0.0055559166 0.024211088
0.012148799 -0.017871296 -0.027086847 0.12147261 -0.0045233537 -0.009864514 -0.018108426 -0.004794452
-0.0016320775 0.016578257 -0.0016170805 -0.05831984 0.02354512 -0.0637493 0.0143448915 0.016016461
0.0057948898 -0.0071844184 0.014963376 -0.012553777 0.004524519 -0.0009996236 0.0057497867 -0.007069875
-0.006440143 -0.003305639 0.0057303235 -0.026171677 0.01954731 -0.017473754 -0.005817557 0.017918043
0.016209213 0.009243132 0.016471146 -0.019578991 -0.027134443 -0.0030366036 0.015156352 0.005760143
-0.025621744 0.012294109 -9.981752e-05 0.01170046 -0.021415327 0.019275669 0.0085132755 0.027551508
0.016285015 -0.0020996358 -0.017660078 -0.007123455 -0.004255678 0.0107910335 0.0019811178 0.009520598
-0.013306369 -0.010790651 0.0013919595 0.000323343 -0.017260656 -0.056289606 -0.020116918 -0.021879716
0.04409874 0.0058685313 -0.008567091 -0.0064287633 0.07844162 -0.02199295 0.0058541326 -0.0800339
0.0043497616 0.012400357 0.0104151685 -0.0112088965 0.015391159 -0.017706828 0.022641959 -0.010838386
-0.014496142 -0.008173065 -0.015284354 0.00622289 0.0060262564 0.0030047537 -0.013344503 -0.010187633
-0.024610305 0.013936637 0.0075945184 -0.008940428 0.029630246 0.023121446 0.025886977 0.0020982886
-0.0024785688 -0.0036703425 -0.0031290348 0.017305309 -0.009088284 0.0039342064 -0.0013441953 -0.03029304
-0.022916902 -0.01140246 -0.0037784963 -0.0024015713 0.0028545493 0.0009711315 0.0061743665 -0.0144574875
-0.029697038 -0.018336995 0.018490538 0.018475797 0.022021765 0.010236197 0.01108534 -0.014516089
-0.0013244892 0.031064924 -0.011151864 0.017809842 -0.02059943 0.02018024 -0.013066382 -0.029316792
0.002835022 0.008514461 -0.0009426851 -0.020551754 0.016594484 -0.0066030347 0.017699488 -0.012002629
-0.020008834 0.01716308 0.0062230653 0.0460183 -0.013692141 -0.0046100803 -0.004699079 -0.045343343
-0.0240627 -0.021276958 -0.00819018 -0.0124600055 -0.0046171644 -0.0039226096 0.002589577 0.013169184
-0.19187097 -0.0022196374 -0.008820817 0.011674036 0.007965792 0.006950046 -0.005815542 -0.0050252867
-0.056875072 0.003155952 0.06796974 -0.0038462433 -0.0048320936 0.024512151 -0.0024565596 0.0042522643
0.0085625155 -0.008834807 0.0068938914 -0.0122442255 0.007869018 0.020947836 -0.0008748604 -0.009564159
-0.011054044 0.01025156 0.0022558796 0.003524545 -0.005830488 0.013279244 -0.020330919 -0.08773558
0.0011702259 -0.004756281 0.019565992 0.007186128 0.013985643 0.021973366 -0.048639394 -0.00082149415
-0.00015333251 -0.016492229 -0.01499954 -0.009020961 0.0076860776 0.034013644 0.019724924 -0.0012123658
-0.022397848 -0.0113914125 0.002754496 0.01398 0.013393426 -0.0016507974 -0.029573228 -0.03499877
0.011259908 0.0044920538 -0.0029105928 0.005293355 -0.0062185396 0.006795763 0.0014937537 -0.018132426
