data/gru/ptb/adamax/fitstats/model/model.pkl_04.npy (npy, 524368 bytes, 1 tensors)

array f4 [512, 256]
0	0xbe5a21d7	-0.21301971
1	0xbda3e67b	-0.08002945
2	0x3bf2143d	0.0073876665
3	0x3da2b033	0.079437636
4	0x3e690b99	0.2275833
5	0xbe03d0be	-0.12872598
6	0xbe801f5a	-0.2502392
7	0x3e9a762a	0.30168277
8	0x3e0034ce	0.12520143
9	0x3d7b5644	0.061361566
10	0x3c9c8e80	0.019110918
11	0x3dfe5b71	0.12419785
12	0x3dcd6f1f	0.1003096
13	0xbe0f1a65	-0.13974912
14	0x3dfb600d	0.122741796
15	0xbe415c49	-0.1888286
16	0xbd2dddec	-0.04244797
17	0xbe322337	-0.17396246
18	0x3e1a242f	0.15052865
19	0xbe9964a8	-0.29959607
20	0x3c4be91b	0.012445713
21	0x3d522cbd	0.051312197
22	0xbd19d5e3	-0.037557494
23	0x3e5e26f5	0.21694548
24	0x3dd31cd7	0.10308235
25	0xbe882519	-0.26590803
26	0xbd791e87	-0.06082013
27	0xbdd0fed0	-0.102048516
28	0xbddca813	-0.10774245
29	0x3c1fea9d	0.009760526
30	0xbd12ec21	-0.03586972
31	0x3e223762	0.1584144
32	0xbd8b3d4b	-0.067988
33	0xbe7babb5	-0.2457722
34	0xbccf1587	-0.02527882
35	0x3d8c0722	0.06837298
36	0xbde82155	-0.113344826
37	0xbe22192a	-0.15829912
38	0xbb9f7163	-0.0048658117
39	0xbdba5f19	-0.0910017
40	0x3e5329ab	0.20621364
41	0x3d337748	0.043814927
42	0x3e3c36dc	0.18380302
43	0x3e24f1ca	0.1610786
44	0xbd1c48c6	-0.03815534
45	0xbaa51dbd	-0.0012597364
46	0xbe13db15	-0.14439042
47	0x3cd2213e	0.025650617
48	0x3dbd74c4	0.09250787
49	0xbd9286e3	-0.07154634
50	0x3e1a849e	0.15089652
51	0xbb09e8ed	-0.0021043376
52	0xbc37b336	-0.011212161
53	0xbeb475cb	-0.3524612
54	0x3dca5e37	0.09881251
55	0x3e506acb	0.20353238
56	0x3dc7cc98	0.0975582
57	0x3c7baf56	0.015361628
58	0x3e00e273	0.12586384
59	0x3e9ad8ae	0.30243438
60	0xbe363383	-0.17793088
61	0x3d84f341	0.064917095
62	0x3d244565	0.040105242
63	0xbe2b6694	-0.16738349
64	0x3d9f9f3a	0.07794042
65	0xbea8575f	-0.3287916
66	0xbd14446b	-0.03619806
67	0xbdfca8bc	-0.12336871
68	0x3d3965f5	0.04526325
69	0xbc80ee34	-0.015738584
70	0x3cdb1996	0.026745599
71	0xbe166f23	-0.14690833
72	0x3dbb548f	0.09146988
73	0xbe70f4e7	-0.23530923
74	0x3e6941e0	0.22779036
75	0xbd0d63f6	-0.03451916
76	0x3d474229	0.04864708
77	0xbca4f12b	-0.02013453
78	0xbe0ed994	-0.13950187
79	0x3d620bed	0.055187155
80	0xbddba433	-0.10724678
81	0xbcac834f	-0.021058707
82	0xbcb7876d	-0.022403443
83	0x3be39024	0.006944673
84	0xbd312137	-0.043244567
85	0x3e6c63fc	0.23085016
86	0xbde126b7	-0.109937124
87	0xbdcd26c8	-0.100171626
88	0x3cbaffdb	0.02282708
89	0xbef3f06a	-0.4764436
90	0x3dcd205a	0.10015936
91	0x3cce8a95	0.025212565
92	0xbc83fec8	-0.0161127
93	0xbe514d75	-0.20439704
94	0x3d81fbcb	0.06346854
95	0x3c73eb66	0.014887666
96	0xbe949513	-0.29019985
97	0x3cda5e9a	0.026656438
98	0x3e0addcd	0.13561173
99	0x3d8dc120	0.06921601
100	0xbec12c3e	-0.37729067
101	0xbc6906a5	-0.014222776
102	0xbdeb341f	-0.11484551
103	0x3d55e9fb	0.052225094
104	0x3dc61840	0.09672594
105	0x3dc21656	0.094769165
106	0xbddd03e3	-0.10791757
107	0x3e6dc876	0.23221001
108	0x3c914de9	0.017737346
109	0xbdbc534f	-0.09195577
110	0xbb934452	-0.0044942284
111	0xbe438737	-0.19094549
112	0xbc9a293c	-0.01881849
113	0xbd4d6d17	-0.050152864
114	0x3e2b0e0e	0.1670458
115	0xbdafd26f	-0.08585059
116	0x3e1f0ba9	0.15531792
117	0xbe068c3c	-0.13139433
118	0xbd921a42	-0.071339145
119	0xbd9d9fd4	-0.076965004
120	0xbe0d5c4d	-0.13804741
121	0x3df1bd90	0.11803734
122	0x3cc216a1	0.02369243
123	0x3d1cfae4	0.038325205
124	0x3dd7c860	0.105362654
125	0x3e89a5da	0.26884347
126	0x3ce42eab	0.027854284
127	0xbe681ee3	-0.22668032
128	0x3d49608e	0.049164347
129	0x3df4a213	0.11944976
130	0x3d848269	0.06470186
131	0xbd78e611	-0.060766283
132	0x3e4734ec	0.19453782
133	0xbe3bd76f	-0.183439
134	0xbcfbcef2	-0.030738328
135	0xbd77f9d6	-0.060540996
136	0xbdff088f	-0.12452804
137	0x3d9346de	0.07191251
138	0x3e167fbd	0.14697166
139	0x3d943ac1	0.07237769
140	0x3d9f4fde	0.07778905
141	0x3d267731	0.040641014
142	0x3e233bbd	0.15940757
143	0x3d7294d7	0.059223976
144	0xbe2c04df	-0.16798733
145	0xbecdfe12	-0.40232903
146	0xbdcf82f5	-0.101324
147	0xbe15e181	-0.14636804
148	0xbe292552	-0.16518143
149	0xbe54f199	-0.20795287
150	0xbe2b2b5c	-0.16715759
151	0x3e04ca2f	0.12967752
152	0xbdccf914	-0.100084454
153	0x3d82b8d5	0.0638291
154	0x3cd87a54	0.026425518
155	0xbdb75030	-0.089508414
156	0x3d2d394a	0.042290963
157	0xbcaed820	-0.02134329
158	0xbd830028	-0.06396514
159	0x3d964103	0.07336619
160	0xbdb25c3f	-0.08709001
161	0x3ea58732	0.32329708
162	0x3ebd1828	0.36932492
163	0xbd59071c	-0.052985296
164	0x3c946de9	0.018118815
165	0xbdc39471	-0.09549797
166	0x3e2a238c	0.16615123
167	0xbd96ed48	-0.073694766
168	0x3d501744	0.050803438
169	0x3e0324da	0.12807027
170	0xbded87ad	-0.11598144
171	0xbe59ab3f	-0.21256731
172	0x3e5fcfaf	0.21856569
173	0xbdd30de3	-0.10305383
174	0x3d239089	0.03993276
175	0x3e73f60d	0.2382433
176	0xbe93d84c	-0.2887596
177	0x3e42cc83	0.19023328
178	0xbda251e0	-0.07925773
179	0xbe05409a	-0.13012925
180	0xbe86d39d	-0.26333323
181	0xbd0d8dc3	-0.034559023
182	0x3e958ff1	0.2921138
183	0x3b1e6007	0.0024166123
184	0x3e0eb0ed	0.1393468
185	0x3e87852d	0.26468793
186	0x3e0ac699	0.13552321
187	0xbe1be994	-0.15225822
188	0xbea33d01	-0.3188248
189	0x3dec0cb0	0.115258574
190	0x3e97cecb	0.29649958
191	0xbbd69ec2	-0.006549687
192	0xbcbc8d37	-0.023016555
193	0x3db59949	0.088671274
194	0x3cda30bd	0.026634568
195	0x3d30158d	0.042989302
196	0xbc886242	-0.016648415
197	0xbe5cd96d	-0.21567316
198	0xbce3eaf1	-0.02782199
199	0x3c1404b2	0.009034323
200	0x3d244636	0.04010602
201	0x3c78649a	0.015160704
202	0x3c427ad8	0.011870109
203	0xbeafce67	-0.3433716
204	0x3dc07635	0.09397546
205	0x3eb4f35c	0.35341918
206	0x3d9fb089	0.07797343
207	0xbd823535	-0.06357805
208	0x3c8763ef	0.016527144
209	0x3d891f11	0.066953786
210	0xbc506d9e	-0.012721447
211	0x3dad83ce	0.084724054
212	0x3cf90595	0.03039817
213	0x3d6f2a93	0.05839021
214	0xbd029b2e	-0.031886272
215	0xbeb39f17	-0.35082313
216	0xbe41ad97	-0.18913876
217	0x3dd733cd	0.10507927
218	0xbd872a35	-0.06599847
219	0x3e86d9b9	0.26337984
220	0xbe0d81c8	-0.13819039
221	0x3e17d136	0.14825901
222	0x3db38ea1	0.08767439
223	0xbcce857a	-0.025210131
224	0xbe9b101d	-0.3028573
225	0xbc3eba00	-0.011641026
226	0xbdff0c86	-0.124535605
227	0xbdc7c0d9	-0.0975358
228	0xbda6bf24	-0.08141926
229	0x3cbfe309	0.023423688
230	0xbe16566a	-0.14681402
231	0xbd5fe18b	-0.054658454
232	0xbe2e4779	-0.17019452
233	0x3d3f8f39	0.046767447
234	0x3e642188	0.22278416
235	0x3e9fd744	0.31218922
236	0xbe425d45	-0.18980892
237	0xbd170214	-0.036867216
238	0x3ca957b2	0.0206717
239	0xbe059109	-0.13043608
240	0xbe339e85	-0.17540939
241	0xbe400576	-0.18752083
242	0xbd119fb9	-0.035552714
243	0x3e267880	0.16256905
244	0x3d9eec16	0.077598736
245	0x3db10999	0.08644409
246	0x3dcd9875	0.100388445
247	0xbe33b397	-0.17548977
248	0xbce99392	-0.02851275
249	0xbd1d4bfc	-0.038402542
250	0xbd9a40d4	-0.07531896
251	0x3c8b55c6	0.017008673
252	0xbdcecc87	-0.10097604
253	0x3d3adc7a	0.04562042
254	0xbeaa357d	-0.33243933
255	0xbc83367b	-0.01601719
